logs/comparison_reinforce_coordinates/reinforce_episode_1500.pt (torch, 67741 bytes, 18 tensors)

network.0.weight f4 [64, 2]
00000000: 768e 923e cec6 a43e cbc4 b13d 2ef2 e3bd
00000010: 4547 19be f778 3abe 81c8 3b3e b5ab eb3d
00000020: cc1e 7abe ab60 91be 5ac8 aabd 0e81 933c
00000030: c1bc 93bc 9f0a 6bbd e82a 80bd 1458 3d3e
00000040: f4a2 a93e 8dfd 7dbe f866 953e fed5 253c
00000050: b8bb b4ba bb0e b23e 2adb 2cbd 5b8c 5dbd
00000060: 74f8 8bbd 3f6c 5f3e 2504 b23d 5839 8dbe
00000070: 77ed 073e 8462 98be 4ae6 fcbd c16d fa3b
00000080: c379 76be 2bb4 3c3e f069 8cbd 6022 1ebe
00000090: c4d2 dfbd a315 40bc 9802 fa3b edac 453e
000000a0: a65e 913e 6a6b b03d 498b 2fbe deba b83e
000000b0: 6216 1fbd 4094 19bd cbc6 84be 0aca 56be
000000c0: b255 443e 92c3 b73d 7329 7dbd b888 6bbe
000000d0: c856 90be ae74 5e3e 03ab abbc b78a 433e
000000e0: 1046 dabd c1e4 94be 96d4 bfbd 60d3 c6bd
000000f0: cfc9 373e 5ad4 273e e1e6 e9bd 984e 763e
00000100: 3c04 dc3c 7113 253e 62f6 84be b0a6 643e
00000110: 9ab0 03be 83d9 a53e 19c4 80be 14ed 243e
00000120: 9d85 7e3e 810e 87be c166 85be 88a0 3e3e
00000130: 8892 a1bb 39fa a5bd f21f d0bc 823b 7f3e
00000140: 3bc5 94be 3f84 063e 49d6 4a3e 8aa3 36be
00000150: c03b 81be b024 163e 29db a2bd 07fb 35be
00000160: 4d38 96be 8d6c 03be 0753 203e 689c 1d3e
00000170: cfd5 77be ceb4 143e 3e0c 183e ac59 803e
00000180: 4d36 4d3e 0aac 7b3e 6e02 993e 8bf7 24bc
00000190: 4fa7 7ebd 3350 343e e406 b73d 5b0a a03e
000001a0: b659 a7bd 11b3 a6bd 4177 493e ab4f 1cbe
000001b0: 02be 6f3d d540 263e 02e6 c5bd 438c 7ebe
000001c0: 24af 6f3e 9671 33be 1abe 90bd b225 bc3e
000001d0: e7f9 4fbe 5226 b0bd 48e4 bc3e 3540 96be
000001e0: 83a7 e6bd d8c7 2fbe b3b4 423e 9eb1 703e
000001f0: 664a 1cbc 538c 973e 9275 003e 14e8 4cbe
0.28624314 0.32182926 0.086801134 -0.111301765 -0.14968593 -0.18210207 0.18338205 0.1150736
-0.2442581 -0.28394064 -0.08338995 0.018005874 -0.01803434 -0.057383176 -0.06258184 0.1849063
0.33132136 -0.24803753 0.2918012 0.0101218205 -0.0013788855 0.34776863 -0.0422012 -0.05408893
-0.06834498 0.21818636 0.08692197 -0.27582812 0.1327418 -0.2976266 -0.12348612 0.007642478
-0.24069886 0.18428104 -0.068561435 -0.154428 -0.10928872 -0.011723909 0.0076297037 0.19304247
0.28392524 0.086142376 -0.17142977 0.36080068 -0.038839705 -0.037494898 -0.25932917 -0.2097551
0.19173315 0.08972849 -0.061807107 -0.23001373 -0.2819121 0.21724197 -0.020955568 0.19095884
-0.106578946 -0.29080775 -0.093667194 -0.09708285 0.17948078 0.163896 -0.1142099 0.24053419
0.026857488 0.16120698 -0.25969225 0.22329211 -0.12860337 0.3239251 -0.2514961 0.16106063
0.24855657 -0.26378253 -0.26054958 0.18615925 -0.004930798 -0.08104367 -0.025405858 0.24925044
-0.29056725 0.13136385 0.19808306 -0.17835823 -0.25240898 0.14662433 -0.07951958 -0.1777154
-0.2933983 -0.12834378 0.15656672 0.15391695 -0.24202655 0.14522097 0.1484842 0.25068414
0.20040245 0.24577346 0.29884666 -0.0100687845 -0.062171277 0.17608719 0.08936861 0.312579
-0.08171408 -0.08139623 0.19674398 -0.15264766 0.058530815 0.16235669 -0.09663011 -0.24858193
0.23406655 -0.17523798 -0.07067509 0.3674751 -0.20310174 -0.08601059 0.36892915 -0.2934586
-0.11262419 -0.17166078 0.19014244 0.23505256 -0.009539222 0.29599246 0.1254485 -0.20010406

network.0.bias f4 [64]
00000000: 405e a23d ee20 803d 0000 0000 2987 acbc
00000010: 0000 0000 0000 0000 0000 0000 36ba 773d
00000020: 8d9d 953d 1ac2 1c3d fe86 a13c 0000 0000
00000030: d40e 893d e881 0abd a77c b2bc 0000 0000
00000040: e1e8 29bc 0000 0000 0000 0000 2d1b 83bc
00000050: ba5b 9f3d 58af 413d 0000 0000 0000 0000
00000060: 802f f93c 0000 0000 39f1 98bd 2aae bb3d
00000070: 0000 0000 0000 0000 292b 2bbd ffb2 cf3c
00000080: 5e82 e63c 42b6 aabd 7090 d7bb 69ce 5abd
00000090: 7373 bb3d b252 09bd 0000 0000 38b9 373d
000000a0: 986d 21bc a6ac 8f3d c4c2 0a3d 0000 0000
000000b0: 0000 0000 91aa a73d d627 35bd 7ab8 da3c
000000c0: 15a4 68bd a408 953c 1ace 93bc d349 2ebd
000000d0: 0000 0000 fa31 753d 6f3d 32bd 0000 0000
000000e0: 378f 87bd 1fe4 e63d 0000 0000 f3e5 d23d
000000f0: 0000 0000 adfb 423c 3e17 283d 79bf b33d
0.07928133 0.06256281 0.0 -0.021060543 0.0 0.0 0.0 0.06048032
0.07305441 0.038271047 0.01971769 0.0 0.06692281 -0.033815295 -0.021787954 0.0
-0.010370464 0.0 0.0 -0.01600417 0.07781167 0.04728636 0.0 0.0
0.030418158 0.0 -0.074678846 0.091640785 0.0 0.0 -0.041789208 0.025353907
0.028138336 -0.08335544 -0.0065784976 -0.053419504 0.091528796 -0.03352613 0.0 0.044854373
-0.009852789 0.07015352 0.03387715 0.0 0.0 0.0818683 -0.044227444 0.026699293
-0.056797106 0.018192597 -0.018042613 -0.042550873 0.0 0.059862114 -0.04351562 0.0
-0.06619113 0.112739794 0.0 0.102977656 0.0 0.0119008245 0.04103779 0.08776755

network.2.weight f4 [32, 64]
00000000: dbe4 3ebd a078 6f3c a0ef 94bd 47b4 59be
00000010: 6004 0ebc 607b fdbc 780f 6fbd 93e7 5a3e
00000020: 2069 f03c 1d81 4abe 65ec 253e f0d4 1dbd
00000030: 8f87 b13d 60fd aabd 92bd 193e 7e1a 213e
00000040: 0952 763e 72b0 21be b4c2 863d 019e 9ebb
00000050: 30f2 783d c33f 173d c0c4 c53b 3239 033e
00000060: c1d1 31be bec2 33be 6a93 abbc 0716 3abd
00000070: ac07 4dbe 8e95 163e 94dc 21be f21e a0bd
00000080: ad8c 81bd 3117 113e 2e01 b93d 8112 90bc
00000090: 3444 4d3e bfba 733e 3840 143e 554d cf3d
000000a0: 4336 b13d 0e55 32be 3121 843e 3000 b4bd
000000b0: a05b aa3c be1e 9f3d 9e57 033e ddab 84be
000000c0: e83f a53d 1ccc 63be a261 06be 6236 68be
000000d0: d829 a03d f4d2 12be d93c 74be 7c7a 14be
000000e0: 0036 faba c6d5 b93d 700a 0d3d 2054 58be
000000f0: 74f8 34be 3330 9cbd d661 b13c a46d 0e3e
00000100: c55a d2bd 0fe3 553e 904e 933c eb7c 073e
00000110: ec57 d23d 909d b43c 1064 75be 6c4d 693e
00000120: cd28 31be bf7f 4b3e d3d6 813e f854 e8bd
00000130: 10d3 123c 1a7b b5bc 8497 84bd 308c 5ebd
00000140: 0756 09be e05a 233c 266b 423e 1a72 eebd
00000150: 22cc 8a3e 9390 57be e0ce 79bd 2c68 e1bd
00000160: e1f9 4bbe eae7 613e 239f a6bd 8f16 ff3d
00000170: 785c 7ebe 00f2 2fbd d1ae 853e 6adf 063e
00000180: 5125 b8bd 0e36 1cbe a1ec cb3d d5dd 803e
00000190: 1869 813e afea e3bd 860f 6a3e e78c ef3d
000001a0: 8bd9 17bd f406 4fbd 2e1a 9f3e 2036 183d
000001b0: d0f9 c3bd ddc6 323e 1df1 c6bd ee94 873e
000001c0: c24c 42bd fb2a 9cbd f385 173d 7754 15bd
000001d0: d8e7 1d3d 5c81 5fbe fe2f e5bd 6ada 74be
000001e0: 6442 2d3d 62f8 e23d 2c1b 1b3e e352 61be
000001f0: c2d2 7ebe 4b4d 203e 1b95 dcbd 7a7b 173e
00000200: ef4a 413e 5d62 003d 069a 57be 91ba bcbd
00000210: 6057 233d 3002 afbd 9872 1e3d a009 83be
00000220: 0a6c c13d ff2e 7f3e b5cc 08bd 88de 483e
00000230: 09a0 233d 1780 eb3d 9f56 5c3e 409f c83c
00000240: c02e 563d 9807 30bd 503b 58be 0cc6 83bd
00000250: 2901 aabc 8153 cd3c 8a76 1a3e 82fd 3ebe
00000260: dc07 993c e665 0f3e e1a4 ab3d f416 90bd
00000270: 764d 3dbe c0b6 a9bc 1e15 27bd 7d7f 54be
00000280: 352e 1e3e f7f1 55bd a840 27be 9ac6 c5bd
00000290: f4ad 823e c1a1 3f3e 68df 25bd e008 f9bd
000002a0: fb31 81bd 9cb6 103e b07b 873c d015 b8bc
000002b0: 90d2 cf3d 5289 393e bd29 8cbe c18c 34be
000002c0: 2f56 673c 0ea8 e23d d475 81bc 55c1 1ebe
000002d0: 0054 163e 3e02 943e 52c4 29be 60c4 033e
000002e0: 394a e33c 89f0 8bbd 367e 61be 4c5c a53d
000002f0: a032 0abd ded0 063e 95eb a0bd 3a1a 3b3c
00000300: a827 d3bd b080 1ebd 2457 87bd 3cf2 23be
00000310: a09a fabd 6877 373d 8032 0e3e be46 3cbe
00000320: ca36 233e aa27 57be 46f5 69be a061 0dbc
00000330: 8414 3a3e 6e1c 303e f4ef 62be 5c8f d03d
00000340: 361e 74be 1af0 7d3e 7ce3 b0bd 3e8f 11be
00000350: d877 4f3d 706c 63be 4c5c cd3d 84ed 88bd
00000360: b472 b3bd 7221 7ebe 5857 f63d 1e05 7e3e
00000370: a238 64be 48fc b8bd e645 633e 78ee 4fbd
00000380: e271 743e 92ba 5a3e c0db 553e 12cc 03be
00000390: ec73 02be 981b 903d 7403 3ebe c44a 9f3d
000003a0: 1ce5 76be 6c4a ad3d 3e4f 3dbe 2c1e 7bbe
000003b0: 3819 1c3d 8c6f bdbd d41a 323e e015 8bbd
000003c0: 0c94 aabd 20bc a33c c08b 1abd a2e3 0b3e
000003d0: 10f2 253d 703c 4b3d 3638 033e 28f4 7d3d
000003e0: 983b 2c3d a01e 93bd a656 5cbe 84c7 11be
000003f0: c09f 43bc 28c2 d83d d25d 7abe 46af 6b3e
-0.046604972 0.014616162 -0.07272267 -0.21260177 -0.008668035 -0.030942619 -0.05836436 0.21377401
0.029347003 -0.19775815 0.16203459 -0.03853315 0.08668434 -0.08349109 0.15013722 0.15732762
0.24054731 -0.15789965 0.065801054 -0.004840613 0.060777843 0.036926042 0.0060354173 0.12814787
-0.17365171 -0.17554757 -0.020944316 -0.045431163 -0.20022458 0.14705488 -0.158068 -0.07818402
-0.0632566 0.14169003 0.09033428 -0.017586948 0.20045549 0.23801707 0.14477623 0.10122172
0.08652928 -0.17415258 0.25806573 -0.08789098 0.020795643 0.077695355 0.12826392 -0.2591237
0.0806883 -0.2224583 -0.13123181 -0.22676995 0.07820481 -0.14338285 -0.23851337 -0.14499849
-0.001908958 0.09073977 0.034433782 -0.21125841 -0.17672902 -0.07626381 0.021653097 0.13909012
-0.10271219 0.20887397 0.017981797 0.13231246 0.10270676 0.022047788 -0.23963952 0.2278344
-0.1730072 0.1987295 0.2535921 -0.113443315 0.008961454 -0.022153426 -0.06474212 -0.054332912
-0.13411723 0.009970397 0.18986186 -0.11642857 0.27108866 -0.21051244 -0.060988307 -0.11006197
-0.1991954 0.22061124 -0.08135822 0.124554746 -0.24839962 -0.0429554 0.26109937 0.13171163
-0.089914925 -0.15254995 0.09957243 0.25169244 0.25275493 -0.11128747 0.22857484 0.11696797
-0.0370727 -0.05054374 0.3107466 0.037160993 -0.09569132 0.17458673 -0.097139575 0.26480812
-0.047436483 -0.076253854 0.03699298 -0.036457505 0.03855118 -0.2182669 -0.111907944 -0.23911443
0.042299643 0.110825315 0.15147084 -0.22004275 -0.24885085 0.15654485 -0.10770627 0.14793196
0.18876241 0.031343807 -0.21054849 -0.09215272 0.03987825 -0.08545339 0.038683504 -0.2559328
0.09444435 0.24920271 -0.03339835 0.19616139 0.039947543 0.114990406 0.21517418 0.024489999
0.052290678 -0.042975992 -0.21116376 -0.06434259 -0.020752506 0.025064232 0.15084282 -0.18651393
0.018680505 0.14003715 0.083810575 -0.07035628 -0.1848658 -0.020717025 -0.040791623 -0.20751758
0.15447314 -0.05223271 -0.16333258 -0.09657021 0.2552334 0.18714048 -0.04049626 -0.12159896
-0.06308361 0.1413216 0.016538471 -0.022471339 0.101475835 0.1811879 -0.27375594 -0.17631818
0.014119669 0.1106721 -0.015803255 -0.15503438 0.14680481 0.2890796 -0.16578797 0.1286788
0.027745353 -0.06832988 -0.22020802 0.08074245 -0.033739686 0.13165614 -0.07857434 0.011419827
-0.10310298 -0.038696945 -0.06608418 -0.16010374 -0.12236524 0.04479161 0.13886452 -0.18386361
0.15938869 -0.21011224 -0.2284747 -0.008629233 0.18171889 0.17198345 -0.22161847 0.10183594
-0.2383965 0.24798623 -0.08637139 -0.14214799 0.0506514 -0.22209334 0.1002737 -0.066859275
-0.08762112 -0.24817446 0.12028378 0.2480664 -0.22287229 -0.09032494 0.22194633 -0.05076453
0.23871568 0.21360233 0.20884609 -0.12870815 -0.12739533 0.07036513 -0.18556005 0.07777932
-0.24110836 0.084614605 -0.1848726 -0.24523228 0.038109988 -0.092497915 0.17393047 -0.06791282
-0.08329019 0.019987166 -0.037730932 0.13661054 0.040514052 0.049618185 0.12814412 0.062000424
0.04204902 -0.07183576 -0.21517429 -0.14236265 -0.011939943 0.10583907 -0.24449852 0.2301608

network.2.bias f4 [32]
00000000: ee1b 4fbd ea12 323c f0c7 a13d 0000 0000
00000010: 7224 9c3d 58c1 0b3c f202 923d 04fa a7bb
00000020: 129f 373d 7481 5dbd 0000 0000 3f90 873d
00000030: 0f04 02bd 4786 1b3d 2322 1b3c 84a4 a4bc
00000040: 3318 1dbc 13c6 00bd 73a8 2c3d a9af 133d
00000050: dc27 babc 0000 0000 41e5 a7bd 5a0d 693d
00000060: 5b8b 58bc 3cc6 2cbc e3d6 5cbd 1414 38bc
00000070: 9cbb 75bb aa52 4c3d d6ca ad3c ff53 ea3c
-0.050563745 0.010868767 0.07899463 0.0 0.07624139 0.008529983 0.07129468 -0.0051262397
0.044829436 -0.054078534 0.0 0.0661931 -0.03174215 0.037969854 0.009468588 -0.020097978
-0.009588289 -0.0314389 0.042152833 0.036056194 -0.022724085 0.0 -0.081980236 0.0568975
-0.013216819 -0.01054531 -0.05391587 -0.011235256 -0.0037495857 0.049883522 0.021214884 0.028604506

network.4.weight f4 [4, 32]
00000000: 45c2 ab3e 8e35 9b3e 6fee d73e 14ba a6bd
00000010: 284a b03e 9441 093d b766 933e 3f0a 50bd
00000020: d147 eb3e 8c0a bdbd bef3 6b3e a8c7 0d3e
00000030: ea81 2fbe adff b93e 390e 823e ff70 98be
00000040: 1127 c3be 9d9b 98be cd20 b53e 2cca debd
00000050: 3886 09be a3f9 cd3e e137 983e 6148 b43e
00000060: 1abb c23e e1e2 a63e ce57 2ebe 82db 003d
00000070: 14d5 9abe 922f f63c ec3e 843e 8423 83be
00000080: 08be 563e 2727 453e 461c 81be 1a18 bdbe
00000090: 0dc0 2ebe 8e1f 313d c487 dcbe 2ea4 c1be
000000a0: 0710 a13d 3f7c b4bc 3fff 7fbe 44c8 fabe
000000b0: 36de 903e e8fc b3bd 4ede ac3d 4698 ce3d
000000c0: c90d 0abe 9fff ebbc aae1 bbbd c299 cdbe
000000d0: 17c4 833e a003 a3be f507 993d 48e9 bfbe
000000e0: a910 553e 0e72 29be ee41 b03e 0e17 8f3e
000000f0: 353e 21be 38de a6be 1f6f 993e a69b 4b3e
00000100: e440 9a3e 0628 0a3e 5fc6 26be 972a 99be
00000110: 2318 20be 56d3 67be 6ba9 45be bc6e a9bd
00000120: af65 95be a0db dfbd 52cf 0bbe f217 b9be
00000130: f02c d23e b616 653d 3bd5 d4be 085a fd3c
00000140: 96de b0bd 9612 d1be e2ca 873e aebe a1bd
00000150: 697a 98bd b2c6 cd3e 0433 303d 75e2 873e
00000160: 7d09 e43d 6ee9 a5be 00c5 653e 3cb4 28be
00000170: 55f8 a53e 4b57 bc3d f7f1 353b 950f b2be
00000180: 3385 97be a018 703e 957a 34be 0e18 893e
00000190: 058e aa3d 0030 da3d ddc8 6bbe 16f7 d2be
000001a0: f1ee e8bb 9641 77be 98ce 78bd 8315 ac3e
000001b0: 1752 70be 0e40 703d 4424 00be 9c49 23bd
000001c0: d1a7 953e 1e56 c7bd 1a50 883d 3bd2 953d
000001d0: 66bb 9e3e 3abc 6dbe 5528 19be 002d b73e
000001e0: 1d92 04be 2791 a4bd d105 393d 768b ab3d
000001f0: be71 dfbe 38f6 98bd 7f7b dd3e 5ca5 b23e
0.33546653 0.30314296 0.42174098 -0.0814096 0.34431577 0.033509806 0.28789303 -0.05079102
0.4595323 -0.09230527 0.23042199 0.13845694 -0.17139402 0.36327878 0.25401476 -0.2977371
-0.38115743 -0.29806224 0.35376588 -0.10878405 -0.13430107 0.4022952 0.29730132 0.3521147
0.38033372 0.3259497 -0.17025682 0.03145934 -0.3024069 0.03005198 0.25829256 -0.25613034
0.20970929 0.19253217 -0.25216883 -0.3693245 -0.17065449 0.043242984 -0.4307233 -0.37820572
0.07864385 -0.022031901 -0.24999712 -0.48980916 0.28294533 -0.087884724 0.08440839 0.100876376
-0.13481821 -0.028808413 -0.091739014 -0.4015637 0.25735542 -0.31838703 0.07472221 -0.37482667
0.20807137 -0.16547415 0.344253 0.27947277 -0.15746386 -0.32591414 0.2996759 0.19883594
0.30127633 0.1349183 -0.1628661 -0.29915306 -0.15634207 -0.22639212 -0.19302909 -0.08273074
-0.2917914 -0.10930562 -0.13653305 -0.3615108 0.4104991 0.055929862 -0.41568932 0.03092672
-0.08636205 -0.40834492 0.26521975 -0.078976974 -0.07445223 0.40190655 0.043017402 0.2653996
0.11134622 -0.32404655 0.22438431 -0.16475004 0.32416025 0.09196337 0.002776263 -0.34777513
-0.2959381 0.23446894 -0.17624886 0.26776165 0.08327869 0.106536865 -0.23025842 -0.41204137
-0.007108562 -0.24146113 -0.0607439 0.33610162 -0.23468815 0.058654837 -0.12513834 -0.03986512
0.29229596 -0.097332224 0.06655903 0.07315489 0.3100235 -0.23216334 -0.14956792 0.3577652
-0.12946363 -0.08035498 0.045171563 0.083762094 -0.43641466 -0.074688375 0.43258283 0.34891784

network.4.bias f4 [4]
00000000: b301 4e3d 7f39 68bd 388d 0ebd 61bb 073d
0.05029459 -0.056695458 -0.034802645 0.033137683

exp_avg f4 [64, 2]
00000000: d1f7 9036 b38b e236 c0a3 1d36 cd0b 4b35
00000010: 0000 0000 0000 0000 26f5 1536 2d96 4d35
00000020: 0000 0000 0000 0000 0000 0000 0000 0000
00000030: 0000 0000 0000 0000 d537 c833 415d 8335
00000040: 20d6 9536 a9cc a636 eccb 64b4 aed8 ef35
00000050: 8928 13b7 eae7 0236 0000 0000 0000 0000
00000060: e921 21b6 b2e7 48b6 d5e3 ef34 8daf 651d
00000070: 6bc3 0436 6cbc 81a6 0000 0000 0000 0000
00000080: 619f a336 543f dc36 0000 0000 0000 0000
00000090: 0000 0000 0000 0000 727f 1db6 b71f e8b5
000000a0: 15bf 0236 07e6 b436 499c 9036 4dcf b736
000000b0: 0000 0000 0000 0000 0000 0000 0000 0000
000000c0: ce37 cb36 6074 0c37 0000 0000 0000 0000
000000d0: 0ad5 4036 c3a7 7e36 cb12 e1b6 0bec e235
000000e0: 0000 0000 0000 0000 0000 0000 0000 0000
000000f0: 1935 9336 fee1 8a36 5b54 22b5 855d e234
00000100: b59a 68b4 9780 0e36 e223 8136 bac0 ad36
00000110: 467b 0c36 fbfb 3e36 60d9 5ab5 de06 10b6
00000120: 9600 2336 6c5b ed35 57f5 d736 f7a7 1037
00000130: 0000 0000 0000 0000 292b 3db6 5c9d 51b6
00000140: 45d3 b6b4 45d3 b6b5 0e47 15b4 f5e0 8135
00000150: bc62 2934 3c54 f134 0000 0000 0000 0000
00000160: 0000 0000 0000 0000 3d5e 66b6 500f 8ab4
00000170: 0de1 8bb5 417a 3cb6 69ff 6ab6 532b 7235
00000180: 0371 8c35 3982 4436 18bd 4636 ddf5 ab35
00000190: b181 68b6 0eb6 4ab6 3896 b836 a385 f636
000001a0: 0000 0000 0000 0000 0fee 2d35 b555 c236
000001b0: ba3a 1b36 7faf d436 0000 0000 0000 0000
000001c0: f059 aa35 29ba e132 d097 5db6 4967 5fb6
000001d0: 0000 0000 0000 0000 4ccb 5a35 80ac 1935
000001e0: 0000 0000 0000 0000 f850 88b4 f3c7 0136
000001f0: 66fe f5b6 997b 5bb5 fc16 de35 9458 bc35
4.320384e-06 6.751588e-06 2.3490138e-06 7.5640565e-07 0.0 0.0 2.2345425e-06 7.6586986e-07
0.0 0.0 0.0 0.0 0.0 0.0 9.3233815e-08 9.787401e-07
4.4654735e-06 4.971011e-06 -2.1308341e-07 1.786995e-06 -8.771321e-06 1.9506501e-06 0.0 0.0
-2.4010608e-06 -2.9937187e-06 4.468299e-07 3.0398655e-21 1.978328e-06 -9.002245e-16 0.0 0.0
4.8763327e-06 6.5638833e-06 0.0 0.0 0.0 0.0 -2.3469006e-06 -1.7294577e-06
1.9482734e-06 5.3911967e-06 4.3097284e-06 5.477958e-06 0.0 0.0 0.0 0.0
6.056368e-06 8.371746e-06 0.0 0.0 2.8734235e-06 3.79466e-06 -6.7077103e-06 1.690701e-06
0.0 0.0 0.0 0.0 4.3871228e-06 4.1390294e-06 -6.0472456e-07 4.2163825e-07
-2.1662966e-07 2.1234498e-06 3.848677e-06 5.178238e-06 2.093338e-06 2.8458878e-06 -8.152765e-07 -2.146167e-06
2.4289234e-06 1.7684483e-06 6.4360606e-06 8.622176e-06 0.0 0.0 -2.8188317e-06 -3.1235022e-06
-3.405386e-07 -1.3621544e-06 -1.3902556e-07 9.67672e-07 1.5775271e-07 4.4951037e-07 0.0 0.0
0.0 0.0 -3.4327525e-06 -2.5715644e-07 -1.0421805e-06 -2.8085344e-06 -3.5017385e-06 9.021507e-07
1.0463704e-06 2.9282076e-06 2.9614366e-06 1.2812048e-06 -3.4646184e-06 -3.0206315e-06 5.501115e-06 7.3469287e-06
0.0 0.0 6.4793943e-07 5.791628e-06 2.3130983e-06 6.338523e-06 0.0 0.0
1.2692162e-06 2.6278103e-08 -3.3019933e-06 -3.328971e-06 0.0 0.0 8.1507164e-07 5.724796e-07
0.0 0.0 -2.5390887e-07 1.9338884e-06 -7.331185e-06 -8.1763716e-07 1.6546978e-06 1.4032871e-06

exp_avg_sq f4 [64, 2]
00000000: 9416 2e39 d897 2638 ac64 8938 f431 ce35
00000010: 0000 0000 0000 0000 c8d3 ab38 c4e0 c737
00000020: 0000 0000 0000 0000 0000 0000 0000 0000
00000030: 0000 0000 0000 0000 7739 8637 3458 af37
00000040: 4a7f e938 fc06 a137 3dd1 b138 1733 9c37
00000050: 4175 4a39 997b 3538 0000 0000 0000 0000
00000060: 92b7 f437 e16c 6238 d22b 4f38 6b7c 4135
00000070: c8a1 f838 3b44 6e36 0000 0000 0000 0000
00000080: 66f5 4137 2466 a038 0000 0000 0000 0000
00000090: 0000 0000 0000 0000 1292 9a38 9669 5238
000000a0: ce36 e238 6236 4f38 e55e 9a37 7835 8e38
000000b0: 0000 0000 0000 0000 0000 0000 0000 0000
000000c0: ba01 2939 6a85 0539 0000 0000 0000 0000
000000d0: 8712 f636 0e32 2238 4c09 0b39 2689 4338
000000e0: 0000 0000 0000 0000 0000 0000 0000 0000
000000f0: 1b37 6838 3f31 5637 b4ef 4137 ef08 8d37
00000100: 89a0 1338 b056 4a37 6b50 5637 1bd6 8c38
00000110: ca6f 8c36 4458 9837 75d6 e636 ad9c 9438
00000120: 6c1b af39 2ea1 a837 99a0 f437 8025 4739
00000130: 0000 0000 0000 0000 8b2c 7438 1865 a138
00000140: cf15 1d37 73c9 0139 672e 003a 5d01 3f38
00000150: 5b6b 4537 4499 dc38 0000 0000 0000 0000
00000160: 0000 0000 0000 0000 b27d 1439 16e3 bf38
00000170: 7401 d837 02b6 8a39 62fd 7338 ccb1 2b37
00000180: 38a7 0138 e8c4 0538 528b 1a38 840c ce37
00000190: 10d2 4d38 0100 8e38 8b9d 8938 ba11 ad38
000001a0: 0000 0000 0000 0000 166e 5139 fa7e 8a37
000001b0: c175 2e38 7a86 b638 0000 0000 0000 0000
000001c0: 921e 9738 fcd0 cd36 dedb 9e38 a3cb f038
000001d0: 0000 0000 0000 0000 795e 2b39 7c86 9337
000001e0: 0000 0000 0000 0000 f3c0 8138 5e45 4537
000001f0: acef ad38 78da 6b37 8758 fa38 0ed4 c136
0.00016602344 3.97189e-05 6.551421e-05 1.5362734e-06 0.0 0.0 8.193363e-05 2.3827313e-05
0.0 0.0 0.0 0.0 0.0 0.0 1.6000804e-05 2.0902698e-05
0.00011134015 1.9195948e-05 8.4789914e-05 1.862044e-05 0.00019307902 4.3268872e-05 0.0 0.0
2.9172548e-05 5.3984e-05 4.9393457e-05 7.2079155e-07 0.000118556956 3.550448e-06 0.0 0.0
1.1560833e-05 7.64842e-05 0.0 0.0 0.0 0.0 7.3705e-05 5.0166236e-05
0.00010786728 4.9403294e-05 1.840242e-05 6.781047e-05 0.0 0.0 0.0 0.0
0.00016117739 0.00012733569 0.0 0.0 7.333528e-06 3.8670427e-05 0.00013259536 4.6619352e-05
0.0 0.0 0.0 0.0 5.536443e-05 1.276686e-05 1.1559507e-05 1.681267e-05
3.519704e-05 1.2060322e-05 1.2774118e-05 6.7156005e-05 4.185339e-06 1.8160914e-05 6.8795002e-06 7.086373e-05
0.00033399032 2.0102216e-05 2.916185e-05 0.00018992089 0.0 0.0 5.8215617e-05 7.6959084e-05
9.363007e-06 0.00012377444 0.0004889727 4.553922e-05 1.1767111e-05 0.000105189654 0.0 0.0
0.0 0.0 0.00014161205 9.149888e-05 2.5749883e-05 0.00026457018 5.8171696e-05 1.0233791e-05
3.091173e-05 3.1893054e-05 3.6846213e-05 2.4562942e-05 4.9071445e-05 6.7710884e-05 6.562014e-05 8.252585e-05
0.0 0.0 0.00019972803 1.651001e-05 4.15945e-05 8.7034845e-05 0.0 0.0
7.205935e-05 6.133805e-06 7.5749806e-05 0.00011482022 0.0 0.0 0.00016343025 1.758639e-05
0.0 0.0 6.187139e-05 1.1758266e-05 8.293925e-05 1.4057958e-05 0.000119374185 5.7765346e-06

exp_avg f4 [64]
00000000: 31f9 d735 2544 9535 0000 0000 4f29 a335
00000010: 0000 0000 0000 0000 0000 0000 c53f 1632
00000020: 3f7f 0f36 671b 0eb5 4103 95b6 0000 0000
00000030: 1d37 9cb5 3924 9e34 73a2 a035 0000 0000
00000040: 628f 1c36 0000 0000 0000 0000 904f 93b5
00000050: f9c2 e534 86cf 0a36 0000 0000 0000 0000
00000060: ecb3 3136 0000 0000 3c8e b635 5793 75b6
00000070: 0000 0000 0000 0000 93a4 1136 e872 abb4
00000080: bebd 98b4 2ae6 f635 11ca 8435 de06 10b5
00000090: 0362 6735 8011 4e36 0000 0000 0019 b6b5
000000a0: 45d3 b6b4 769f 04b5 3c54 f133 0000 0000
000000b0: 0000 0000 011c 15b6 417a 3cb5 499c 0cb6
000000c0: 05cc 9a34 e237 cb35 e65c e1b5 6039 2f36
000000d0: 0000 0000 fab9 8fb4 b616 5f35 0000 0000
000000e0: 6cd4 4f35 c5d9 d7b5 0000 0000 5aad 1b34
000000f0: 0000 0000 81cb ddb4 616a 76b6 8896 2935
1.6091273e-06 1.1121198e-06 0.0 1.2156469e-06 0.0 0.0 0.0 8.745649e-09
2.1382727e-06 -5.2939e-07 -4.440925e-06 0.0 -1.1638946e-06 2.945615e-07 1.1968208e-06 0.0
2.3329271e-06 0.0 0.0 -1.0975509e-06 4.2796435e-07 2.0684397e-06 0.0 0.0
2.6479784e-06 0.0 1.3601452e-06 -3.6593608e-06 0.0 0.0 2.1702479e-06 -3.1934837e-07
-2.8450262e-07 1.8395415e-06 9.893575e-07 -5.3654173e-07 8.619683e-07 3.0706578e-06 0.0 -1.3567333e-06
-3.405386e-07 -4.940588e-07 1.1237759e-07 0.0 0.0 -2.221903e-06 -7.021336e-07 -2.0952596e-06
2.883318e-07 1.5140943e-06 -1.6790843e-06 2.6110429e-06 0.0 -2.677114e-07 8.310702e-07 0.0
7.7422624e-07 -1.6082128e-06 0.0 1.4498565e-07 0.0 -4.1312526e-07 -3.6718777e-06 6.317646e-07

exp_avg_sq f4 [64]
00000000: 70cd 9d37 ed6d e336 0000 0000 ea8e fd36
00000010: 0000 0000 0000 0000 0000 0000 3cbe 5f36
00000020: 31a0 4437 4ff0 1437 3854 aa37 0000 0000
00000030: 7fe2 d936 2865 8236 69d7 2537 0000 0000
00000040: e764 e036 0000 0000 0000 0000 311e 2237
00000050: 8e9f 6a37 2f9d ca36 0000 0000 0000 0000
00000060: f2bd c137 0000 0000 3a25 6c36 da9e a037
00000070: 0000 0000 0000 0000 b2c8 aa36 fa2e 3936
00000080: f22d 7436 f133 c136 f95d e235 7820 be36
00000090: a706 1938 3dd5 8637 0000 0000 ca47 3437
000000a0: 9603 1d37 8ff0 4f38 e8ff 0237 0000 0000
000000b0: 0000 0000 9838 a937 cb82 b237 28cd d836
000000c0: 451f b236 a404 b136 775e 1837 e09f 3f37
000000d0: 0000 0000 9923 ab37 223f 1d37 0000 0000
000000e0: 539d b536 ab71 8e37 0000 0000 0f28 9137
000000f0: 0000 0000 64b0 b736 b063 2537 7aac 3237
1.8811523e-05 6.777924e-06 0.0 7.556625e-06 0.0 0.0 0.0 3.334032e-06
1.1719808e-05 8.877439e-06 2.0304797e-05 0.0 6.4934716e-06 3.886078e-06 9.8849205e-06 0.0
6.687467e-06 0.0 0.0 9.662982e-06 1.3984636e-05 6.0383677e-06 0.0 0.0
2.3095843e-05 0.0 3.518841e-06 1.9147457e-05 0.0 0.0 5.089759e-06 2.7594492e-06
3.6385577e-06 5.757895e-06 1.6865662e-06 5.666221e-06 3.6484238e-05 1.6073342e-05 0.0 1.0745551e-05
9.358764e-06 4.9576684e-05 7.808187e-06 0.0 0.0 2.0172723e-05 2.1280159e-05 6.461185e-06
5.3084536e-06 5.2755513e-06 9.0819e-06 1.1421711e-05 0.0 2.0401365e-05 9.3726285e-06 0.0
5.4125353e-06 1.698065e-05 0.0 1.7304e-05 0.0 5.4743596e-06 9.857977e-06 1.0649785e-05

exp_avg f4 [32, 64]
00000000: 946d 991a 0000 0000 0000 0000 e2fd e719
00000010: 0000 0000 0000 0000 0000 0000 168a 0d1a
00000020: 0000 0000 1a17 9319 732f 821a 0000 0000
00000030: 0d01 281a 0000 0000 0000 0000 0000 0000
00000040: 8620 a319 0000 0000 0000 0000 c73e 111a
00000050: d440 081a 8ba9 691a 0000 0000 0000 0000
00000060: f4ce d019 0000 0000 b0eb 9419 999a 1d1a
00000070: 0000 0000 0000 0000 ea58 0a1a eae4 201a
00000080: 136e fb19 f0ef ae19 4b23 511a 5848 3319
00000090: 0000 0000 30e7 8819 0000 0000 82ab 461a
000000a0: b56b ae18 0000 0000 db13 9119 0000 0000
000000b0: 0000 0000 812f 291a d07d 2119 4531 5a1a
000000c0: 7f3d 541a 2098 5519 ff63 e819 66de 651a
000000d0: 0000 0000 0000 0000 6dea df19 0000 0000
000000e0: 0000 0000 5d16 8e1a 0000 0000 0000 0000
000000f0: 0000 0000 efe0 541a 9d08 631a 0000 0000
00000100: ec14 2f35 55fd 2db4 0000 0000 3e07 8534
00000110: 0000 0000 0000 0000 0000 0000 d174 9d34
00000120: 77a7 f3b4 b22c 8d33 8663 2f35 0000 0000
00000130: c878 b434 3934 dbb3 9cf1 45b4 0000 0000
00000140: 91c5 da32 0000 0000 0000 0000 d4f9 bd34
00000150: 178d 5e34 8261 f234 0000 0000 0000 0000
00000160: 3ffa 5a34 0000 0000 20df 92b2 6a8a bb34
00000170: 0000 0000 0000 0000 025f bd34 57c8 9534
00000180: f7c2 a634 6cdb 9c32 9a50 dc34 0317 d9b2
00000190: e3cb ceb4 a486 8cb2 0000 0000 0466 f134
000001a0: d2d2 6cb2 0938 a1b4 4e84 02b3 0000 0000
000001b0: 0000 0000 624b a334 d53f b2b2 c05e 0435
000001c0: bb06 0735 d2eb f932 ead1 5534 d28c 2435
000001d0: 0000 0000 0457 91b4 c8cc ae34 0000 0000
000001e0: f6fb 83b4 be9e 2e35 0000 0000 cc1b 10b5
000001f0: 0000 0000 4922 ff34 766c 1335 b715 7db4
00000200: a07f 9fb4 1cf1 b4b4 0000 0000 7640 3eb4
00000210: 0000 0000 0000 0000 0000 0000 855d ab33
00000220: 2f18 6db5 304c 0db5 7780 a734 0000 0000
00000230: 9b37 ba33 24d1 9eb4 a10c 11b5 0000 0000
00000240: 5611 0000 0000 0000 0000 0000 73a3 3234
00000250: f4f8 06b5 20fa 62b3 0000 0000 0000 0000
00000260: 44da 99b4 0000 0000 ff00 0000 8cba d433
00000270: 0000 0000 0000 0000 1448 d6b3 e32c 91b3
00000280: ae70 9033 aa13 0000 53fd 36b3 0400 0000
00000290: f10c 52b5 ed00 0000 0000 0000 df86 5c34
000002a0: 0400 0000 1d14 1eb5 8d0e 0000 0000 0000
000002b0: 0000 0000 5dc3 75b4 0400 0000 e515 3ab3
000002c0: 7839 05b3 138f 11b5 64a3 66b3 f697 4634
000002d0: 0000 0000 c57b 11b5 d263 e933 0000 0000
000002e0: 4518 f7b4 f324 9734 0000 0000 56ae 89b5
000002f0: 0000 0000 9bd0 f6b3 8dd3 8a34 a57c 10b5
00000300: 0000 0000 0000 0000 0000 0000 0000 0000
00000310: 0000 0000 0000 0000 0000 0000 0000 0000
00000320: 0000 0000 0000 0000 0000 0000 0000 0000
00000330: 0000 0000 0000 0000 0000 0000 0000 0000
00000340: 0000 0000 0000 0000 0000 0000 0000 0000
00000350: 0000 0000 0000 0000 0000 0000 0000 0000
00000360: 0000 0000 0000 0000 0000 0000 0000 0000
00000370: 0000 0000 0000 0000 0000 0000 0000 0000
00000380: 0000 0000 0000 0000 0000 0000 0000 0000
00000390: 0000 0000 0000 0000 0000 0000 0000 0000
000003a0: 0000 0000 0000 0000 0000 0000 0000 0000
000003b0: 0000 0000 0000 0000 0000 0000 0000 0000
000003c0: 0000 0000 0000 0000 0000 0000 0000 0000
000003d0: 0000 0000 0000 0000 0000 0000 0000 0000
000003e0: 0000 0000 0000 0000 0000 0000 0000 0000
000003f0: 0000 0000 0000 0000 0000 0000 0000 0000
6.345635e-23 0.0 0.0 2.3987383e-23 0.0 0.0 0.0 2.926966e-23
0.0 1.5208774e-23 5.38434e-23 0.0 3.4742435e-23 0.0 0.0 0.0
1.6866941e-23 0.0 0.0 3.0036008e-23 2.817651e-23 4.8320226e-23 0.0 0.0
2.1590284e-23 0.0 1.5398035e-23 3.2591722e-23 0.0 0.0 2.8609555e-23 3.327214e-23
2.599725e-23 1.8088088e-23 4.3248696e-23 9.268693e-24 0.0 1.4155446e-23 0.0 4.1083983e-23
4.5086702e-24 0.0 1.5000668e-23 0.0 0.0 3.4986754e-23 8.3489125e-24 4.5121143e-23
4.389025e-23 1.1042563e-23 2.4028626e-23 4.7535742e-23 0.0 0.0 2.3152343e-23 0.0
0.0 5.8765953e-23 0.0 0.0 0.0 4.4022272e-23 4.6949458e-23 0.0
6.5223026e-07 -1.6204042e-07 0.0 2.477845e-07 0.0 0.0 0.0 2.9328524e-07
-4.5384124e-07 6.573954e-08 6.5337406e-07 0.0 3.3615493e-07 -1.02074814e-07 -1.8434952e-07 0.0
2.5468383e-08 0.0 0.0 3.5385767e-07 2.072669e-07 4.514696e-07 0.0 0.0
2.0393871e-07 0.0 -1.7098102e-08 3.4932174e-07 0.0 0.0 3.527312e-07 2.789918e-07
3.1061765e-07 1.8260572e-08 4.103684e-07 -2.527259e-08 -3.8518837e-07 -1.6359373e-08 0.0 4.4963974e-07
-1.3784943e-08 -3.0029358e-07 -3.0388314e-08 0.0 0.0 3.0415964e-07 -2.0750955e-08 4.931171e-07
5.0301213e-07 2.9094654e-08 1.9913537e-07 6.129968e-07 0.0 -2.7071667e-07 3.2559024e-07 0.0
-2.4583977e-07 6.505105e-07 0.0 -5.368463e-07 0.0 4.7522397e-07 5.49196e-07 -2.3570361e-07
-2.9708917e-07 -3.3703043e-07 0.0 -1.771858e-07 0.0 0.0 0.0 7.979819e-08
-8.832457e-07 -5.263746e-07 3.1199644e-07 0.0 8.6714145e-08 -2.9581963e-07 -5.4035087e-07 0.0
6.219e-42 0.0 0.0 1.6637004e-07 -5.0281164e-07 -5.2847213e-08 0.0 0.0
-2.865728e-07 0.0 3.57e-43 9.905952e-08 0.0 0.0 -9.9782625e-08 -6.7602535e-08
6.726019e-08 7.054e-42 -4.2605574e-08 6e-45 -7.824993e-07 3.32e-43 0.0 2.0538162e-07
6e-45 -5.8888855e-07 5.22e-42 0.0 0.0 -2.2888476e-07 6e-45 -4.3326413e-08
-3.1018743e-08 -5.422491e-07 -5.369965e-08 1.849547e-07 0.0 -5.419682e-07 1.0868065e-07 0.0
-4.6024994e-07 2.8152826e-07 0.0 -1.0258034e-06 0.0 -1.1493213e-07 2.5858427e-07 -5.382556e-07
0.0 0.0 0.0 0.0 0.0 0.0 0.0 0.0
0.0 0.0 0.0 0.0 0.0 0.0 0.0 0.0
0.0 0.0 0.0 0.0 0.0 0.0 0.0 0.0
0.0 0.0 0.0 0.0 0.0 0.0 0.0 0.0
0.0 0.0 0.0 0.0 0.0 0.0 0.0 0.0
0.0 0.0 0.0 0.0 0.0 0.0 0.0 0.0
0.0 0.0 0.0 0.0 0.0 0.0 0.0 0.0
0.0 0.0 0.0 0.0 0.0 0.0 0.0 0.0

exp_avg_sq f4 [32, 64]
00000000: 1032 5b37 0000 0000 0000 0000 3faf f735
00000010: 0000 0000 0000 0000 0000 0000 9c27 4b36
00000020: 0000 0000 7008 4235 7d0d 2337 0000 0000
00000030: 77e7 8536 0000 0000 0000 0000 0000 0000
00000040: 9612 9135 0000 0000 0000 0000 c874 4936
00000050: 6121 2f36 467c 0137 0000 0000 0000 0000
00000060: 0ff0 cc35 0000 0000 5301 8535 77f1 6536
00000070: 0000 0000 0000 0000 358e 3436 4137 6536
00000080: c351 1336 5d7e ae35 3438 d436 0817 e334
00000090: 0000 0000 9ade 5c35 0000 0000 04c5 bb36
000000a0: 364e 3234 0000 0000 6451 5335 0000 0000
000000b0: 0000 0000 bd20 8436 d6a0 b934 6aea dc36
000000c0: 437e d936 9ef3 c734 1f9f 0136 da8d f936
000000d0: 0000 0000 0000 0000 2179 f335 0000 0000
000000e0: 0000 0000 1601 3d37 0000 0000 0000 0000
000000f0: 0000 0000 7c73 d636 acfd f536 0000 0000
00000100: 79bd 2336 aedf 0e33 0000 0000 ea5d 3735
00000110: 0000 0000 0000 0000 0000 0000 78f1 7834
00000120: 9bd1 9335 6a77 9135 bc14 a835 0000 0000
00000130: 428c ef34 2060 0634 75c6 4e34 0000 0000
00000140: 9105 e433 0000 0000 0000 0000 e281 d434
00000150: b6e1 8c35 462d 5035 0000 0000 0000 0000
00000160: 8312 1d35 0000 0000 e837 5334 7e0c ad34
00000170: 0000 0000 0000 0000 2247 4c35 4a70 bd34
00000180: 76b2 a834 d7e6 5a34 6b3a 2935 ba05 3433
00000190: a46e f834 6f2b df33 0000 0000 0288 2f35
000001a0: ddf2 2a32 f40e 9834 5285 6b33 0000 0000
000001b0: 0000 0000 985f 4a35 0a6c 1c33 2fda b335
000001c0: 2412 c635 856a 7235 b29d 8434 4c20 8f35
000001d0: 0000 0000 e777 e834 6d1d b534 0000 0000
000001e0: d520 5135 d4e7 9735 0000 0000 fe9f b035
000001f0: 0000 0000 d659 bc35 d770 6a35 02ff 8833
00000200: 4345 3c38 62e8 a735 0000 0000 11c9 8b37
00000210: 0000 0000 0000 0000 0000 0000 5611 8935
00000220: 3ad0 2438 1d90 1738 975f e436 0000 0000
00000230: 3cfd 0336 f30c 8c36 c9fc da36 0000 0000
00000240: 552b 7134 0000 0000 0000 0000 5012 0b36
00000250: a101 0e38 fc71 1136 0000 0000 0000 0000
00000260: 7440 7c37 0000 0000 5007 a234 b4fd f535
00000270: 0000 0000 0000 0000 e15e 9437 2ea9 4f35
00000280: b867 2936 9da8 9e34 8d5b ee35 73e2 6633
00000290: ac0c 9337 b949 3f34 0000 0000 8d14 7036
000002a0: d23d 2432 8e0e 3537 0e2b 9a33 0000 0000
000002b0: 0000 0000 8970 8e37 e8ef 2f33 5b9b b037
000002c0: 950d c937 0097 0038 cbad 2d35 a290 1e37
000002d0: 0000 0000 876b 8337 d2f7 7d36 0000 0000
000002e0: 2f56 cd37 9c46 b436 0000 0000 8b86 4638
000002f0: 0000 0000 bc64 bd37 edfe a936 7707 2836
00000300: 0000 0000 0000 0000 0000 0000 0000 0000
00000310: 0000 0000 0000 0000 0000 0000 0000 0000
00000320: 0000 0000 0000 0000 0000 0000 0000 0000
00000330: 0000 0000 0000 0000 0000 0000 0000 0000
00000340: 0000 0000 0000 0000 0000 0000 0000 0000
00000350: 0000 0000 0000 0000 0000 0000 0000 0000
00000360: 0000 0000 0000 0000 0000 0000 0000 0000
00000370: 0000 0000 0000 0000 0000 0000 0000 0000
00000380: 0000 0000 0000 0000 0000 0000 0000 0000
00000390: 0000 0000 0000 0000 0000 0000 0000 0000
000003a0: 0000 0000 0000 0000 0000 0000 0000 0000
000003b0: 0000 0000 0000 0000 0000 0000 0000 0000
000003c0: 0000 0000 0000 0000 0000 0000 0000 0000
000003d0: 0000 0000 0000 0000 0000 0000 0000 0000
000003e0: 0000 0000 0000 0000 0000 0000 0000 0000
000003f0: 0000 0000 0000 0000 0000 0000 0000 0000
1.3065073e-05 0.0 0.0 1.8453937e-06 0.0 0.0 0.0 3.0272413e-06
0.0 7.228291e-07 9.718698e-06 0.0 3.990655e-06 0.0 0.0 0.0
1.0808751e-06 0.0 0.0 3.001931e-06 2.6096461e-06 7.717934e-06 0.0 0.0
1.5269051e-06 0.0 9.909658e-07 3.426421e-06 0.0 0.0 2.6904866e-06 3.4155821e-06
2.1952299e-06 1.3000787e-06 6.3246353e-06 4.2298802e-07 0.0 8.2280314e-07 0.0 5.59597e-06
1.6605995e-07 0.0 7.8722064e-07 0.0 0.0 3.937718e-06 3.457596e-07 6.5838003e-06
6.4818028e-06 3.7243893e-07 1.9315119e-06 7.437292e-06 0.0 0.0 1.8140164e-06 0.0
0.0 1.1265531e-05 0.0 0.0 0.0 6.391141e-06 7.3311003e-06 0.0
2.439918e-06 3.3265387e-08 0.0 6.8309475e-07 0.0 0.0 0.0 2.3184646e-07
1.1013357e-06 1.0838096e-06 1.252301e-06 0.0 4.461927e-07 1.2514693e-07 1.9257443e-07 0.0
1.061809e-07 0.0 0.0 3.958258e-07 1.0496503e-06 7.755192e-07 0.0 0.0
5.8513996e-07 0.0 1.9671245e-07 3.223285e-07 0.0 0.0 7.6099434e-07 3.5285694e-07
3.1422286e-07 2.0386811e-07 6.3042415e-07 4.1914724e-08 4.62741e-07 1.0392147e-07 0.0 6.53905e-07
9.950523e-09 2.8323086e-07 5.4836455e-08 0.0 0.0 7.538997e-07 3.641984e-08 1.3400039e-06
1.4757429e-06 9.030703e-07 2.4701654e-07 1.066373e-06 0.0 4.3300608e-07 3.3735287e-07 0.0
7.7906344e-07 1.1317848e-06 0.0 1.3159586e-06 0.0 1.4033237e-06 8.7335997e-07 6.379379e-08
4.4887198e-05 1.2510102e-06 0.0 1.666372e-05 0.0 0.0 0.0 1.0212341e-06
3.9294573e-05 3.613542e-05 6.8060576e-06 0.0 1.9667923e-06 4.1738326e-06 6.5263343e-06 0.0
2.2460638e-07 0.0 0.0 2.0723273e-06 3.3856955e-05 2.1673031e-06 0.0 0.0
1.5035377e-05 0.0 3.0180172e-07 1.832776e-06 0.0 0.0 1.7687156e-05 7.73597e-07
2.5243335e-06 2.9552476e-07 1.7759027e-06 5.3757002e-08 1.7529666e-05 1.7815081e-07 0.0 3.577475e-06
9.560113e-09 1.07918295e-05 7.1790154e-08 0.0 0.0 1.6980122e-05 4.0963556e-08 2.1053178e-05
2.3967392e-05 3.0658208e-05 6.4700424e-07 9.451209e-06 0.0 1.5666488e-05 3.7844188e-06 0.0
2.4478037e-05 5.372638e-06 0.0 4.733218e-05 0.0 2.2577464e-05 5.0662698e-06 2.5038296e-06
0.0 0.0 0.0 0.0 0.0 0.0 0.0 0.0
0.0 0.0 0.0 0.0 0.0 0.0 0.0 0.0
0.0 0.0 0.0 0.0 0.0 0.0 0.0 0.0
0.0 0.0 0.0 0.0 0.0 0.0 0.0 0.0
0.0 0.0 0.0 0.0 0.0 0.0 0.0 0.0
0.0 0.0 0.0 0.0 0.0 0.0 0.0 0.0
0.0 0.0 0.0 0.0 0.0 0.0 0.0 0.0
0.0 0.0 0.0 0.0 0.0 0.0 0.0 0.0

exp_avg f4 [32]
00000000: 8c9a 561a d8d5 cfb3 74e4 bcb5 0000 0000
00000010: 47ea 3f34 d3d1 50b5 c59f 87b5 0400 0000
00000020: da37 7535 5fcb b619 0000 0000 ad9e a5b6
00000030: 616b 6e36 5392 f835 b85c bf34 0400 0000
00000040: 0400 0000 0400 0000 c992 4536 815c feb5
00000050: d9fc 9bb6 0000 0000 f3ee 5d36 13f2 8bb4
00000060: e026 8d36 0400 0000 ec72 0536 0400 0000
00000070: 4c36 b536 3c97 f435 d7b0 f7b5 584f 95b6
4.4379005e-23 -9.6780866e-08 -1.407358e-06 0.0 1.7873491e-07 -7.779137e-07 -1.0104783e-06 6e-45
9.1350887e-07 1.89005e-23 0.0 -4.9358555e-06 3.5527266e-06 1.8520026e-06 3.5643984e-07 6e-45
6e-45 6e-45 2.9440728e-06 -1.8951397e-06 -4.6487953e-06 0.0 3.3070653e-06 -2.60669e-07
4.206653e-06 6e-45 1.9885438e-06 6e-45 5.4005413e-06 1.8223432e-06 -1.8454401e-06 -4.449783e-06

exp_avg_sq f4 [32]
00000000: 9fcd e736 90a0 da35 b0d8 3738 0000 0000
00000010: 07be db37 72a2 c736 6286 2838 ba9a 9431
00000020: 4e3d 7638 1a53 9436 0000 0000 5f4c 8938
00000030: 7411 eb37 e401 a437 81fd 2838 fc29 3035
00000040: ed76 be32 2877 c736 691a bd37 dc0a 5e37
00000050: 20db 8b38 0000 0000 4a67 0938 7b52 9837
00000060: 3f63 8138 2809 8131 6d58 a437 6f8b ae36
00000070: 659e 9b37 2dc0 f736 3916 5b37 5590 c938
6.908274e-06 1.6288996e-06 4.3832406e-05 0.0 2.6195323e-05 5.9495733e-06 4.0179475e-05 4.3249573e-09
5.8708065e-05 4.420418e-06 0.0 6.546894e-05 2.802231e-05 1.9551204e-05 4.0290415e-05 6.5626205e-07
2.2172992e-08 5.9445338e-06 2.2542854e-05 1.32347595e-05 6.668852e-05 0.0 3.275954e-05 1.815822e-05
6.1696854e-05 3.755435e-09 1.95915e-05 5.2018363e-06 1.8551198e-05 7.383546e-06 1.3058591e-05 9.611311e-05

exp_avg f4 [4, 32]
00000000: 63b3 5519 6206 2537 2f1e 22b6 0000 0000
00000010: bde1 6b37 00cb 0237 13b7 0cb6 0400 0000
00000020: 4d04 5737 1eae 5717 0000 0000 0ede 7237
00000030: 9a34 dbb5 eaa9 b836 8291 b836 0400 0080
00000040: 0400 0080 0400 0080 aeca f636 f776 e736
00000050: 20f3 9f36 0000 0000 8725 3736 d67b a137
00000060: cbdd 0a37 0400 0000 6166 b1b4 0400 0080
00000070: 15a7 90b5 cd35 bf36 3f9b 7037 3bdd 3936
00000080: c55e 5a15 033d 56b3 d486 0cb5 0000 0000
00000090: 75a9 0bb5 c870 6833 1ab0 0fb5 0400 0080
000000a0: 76c2 b8b4 ca53 8b94 0000 0000 ac41 5633
000000b0: 6944 d3b4 b217 bdb4 bf1b 0db4 0400 0000
000000c0: 0400 0080 0400 0000 1d2c d3b4 17a2 4733
000000d0: df52 0533 0000 0000 37d1 6232 c894 e433
000000e0: 8418 21b5 0400 0000 c575 a7b3 0400 0000
000000f0: eb23 afb4 5d73 81b4 04de d033 22a1 5c32
00000100: 105d f115 80ef b835 9c40 b136 0000 0000
00000110: 1ee5 dd36 dde9 0334 a04e bd36 0400 0000
00000120: 102f a336 82c3 2395 0000 0000 9c57 7135
00000130: 0ab6 7d36 8616 9136 8e3c f735 0400 0000
00000140: 0400 0000 0400 0080 61a1 9f36 7d4c e233
00000150: f59f 9433 0000 0000 2c2a 0c33 d1dd 5d35
00000160: 14df e536 0400 0080 214d 0135 0400 0080
00000170: 11a7 5336 652b 4936 a92e 6c34 76cd ec32
00000180: 6970 5899 114e 3bb7 6041 1db6 0000 0000
00000190: de0c a9b7 19c3 05b7 27fa 49b6 0400 0000
000001a0: e36a 91b7 5017 4997 0000 0000 e764 81b7
000001b0: 5966 ebb5 7cf7 1eb7 c8f7 f1b6 0400 0000
000001c0: 0400 0000 0400 0000 ac9c 44b7 6d8f ecb6
000001d0: 4050 a3b6 0000 0000 0439 3ab6 594f a9b7
000001e0: cabb 73b7 0400 0080 d359 9db3 0400 0000
000001f0: 22de eab5 29da 0db7 bced 75b7 7693 3cb6
1.1048069e-23 9.8362525e-06 -2.415745e-06 0.0 1.405965e-05 7.795868e-06 -2.096819e-06 6e-45
1.2816e-05 6.9690014e-25 0.0 1.4476025e-05 -1.6332081e-06 5.503408e-06 5.5005667e-06 -6e-45
-6e-45 -6e-45 7.3549663e-06 6.898186e-06 4.7668727e-06 0.0 2.7290969e-06 1.9250361e-05
8.277081e-06 6e-45 -3.304331e-07 -6e-45 -1.0777463e-06 5.698507e-06 1.4341261e-05 2.7695921e-06
4.409951e-26 -4.9881248e-08 -5.2350265e-07 0.0 -5.202813e-07 5.4119283e-08 -5.352791e-07 -6e-45
-3.441416e-07 -1.4068462e-26 0.0 4.9885486e-08 -3.9351588e-07 -3.5221234e-07 -1.3141742e-07 6e-45
-6e-45 6e-45 -3.933391e-07 4.6480718e-08 3.1041846e-08 0.0 1.3202501e-08 1.06441405e-07
-6.001285e-07 6e-45 -7.797966e-08 6e-45 -3.2622424e-07 -2.411206e-07 9.726139e-08 1.2842323e-08
9.748595e-26 1.3778772e-06 5.2825326e-06 0.0 6.612986e-06 1.2285405e-07 5.641792e-06 6e-45
4.8632573e-06 -3.3071816e-26 0.0 8.9906985e-07 3.7805899e-06 4.323959e-06 1.8420558e-06 6e-45
6e-45 -6e-45 4.7573562e-06 1.0537858e-07 6.920883e-08 0.0 3.2634645e-08 8.26517e-07
6.8507015e-06 -6e-45 4.816848e-07 -6e-45 3.1538696e-06 2.9976593e-06 2.1996188e-07 2.7567449e-08
-1.1189639e-23 -1.1164245e-05 -2.3432876e-06 0.0 -2.0152362e-05 -7.9728425e-06 -3.0096942e-06 6e-45
-1.733512e-05 -6.4976027e-25 0.0 -1.5424985e-05 -1.7538651e-06 -9.475156e-06 -7.2112052e-06 6e-45
6e-45 6e-45 -1.1718988e-05 -7.050045e-06 -4.867121e-06 0.0 -2.7749347e-06 -2.0183319e-05
-1.4527652e-05 -6e-45 -7.327221e-08 6e-45 -1.7499008e-06 -8.455049e-06 -1.465849e-05 -2.8100017e-06

exp_avg_sq f4 [4, 32]
00000000: d9f9 1836 c055 3139 e4f5 d138 0000 0000
00000010: a1da 1a3a 8176 b539 f869 0139 4729 612c
00000020: 7abc ee39 aca5 6c37 0000 0000 499b 7b3a
00000030: f3e7 7438 78ac b438 5d44 da38 add0 3a33
00000040: c927 8530 0b6c 5537 a202 5a39 01d8 3a39
00000050: 0f85 1c39 0000 0000 9e83 ea38 2461 823a
00000060: e61a d439 81de 612d b3d6 9937 156e 2c35
00000070: 23a4 6637 76a1 8538 2e3a 553a 3a24 6938
00000080: 34bd 692f a17b 1c37 d887 ce37 0000 0000
00000090: df12 c638 ba06 3438 1645 ee37 708a a32d
000000a0: 6160 2238 b395 2337 0000 0000 151a ef37
000000b0: 2d04 3838 575f ce36 5824 af36 63a1 6b32
000000c0: 05d0 0232 2200 7337 7b7a 9937 2c92 7f36
000000d0: b61b 4f38 0000 0000 790f 9337 5c15 e337
000000e0: 4a0e 1b39 a454 0e2f c5ef b837 094e 8535
000000f0: 8bf8 1137 6b00 a536 e3dd 8038 aa29 f335
00000100: a3cc b62f 0eea 8136 5033 8a37 0000 0000
00000110: b1a8 3d38 0054 5737 0779 a137 93e6 ff28
00000120: 3bef 9a37 60ff cf36 0000 0000 50aa 4a37
00000130: 68d5 8937 9cc5 cb36 4bfd 0b36 d8ca d632
00000140: 6107 5231 6550 a136 14bf 4437 2289 0236
00000150: 5b54 9037 0000 0000 cc40 2437 339c 5037
00000160: 3da3 8138 048b 202f 220d e236 9cbb 0335
00000170: 86c6 8a36 7fbd 7b36 3727 cc37 05f1 4135
00000180: f1ee 1936 d770 3039 70e1 cb38 0000 0000
00000190: b5b5 183a 7780 b039 df39 0339 6a0f c32c
000001a0: e3b7 ea39 8efc 3b37 0000 0000 a377 743a
000001b0: fa11 7538 5a4f b338 9625 d738 fbee aa31
000001c0: 458d 4230 24f7 6d37 ff78 5339 4a1f 3739
000001d0: e6cb 1e39 0000 0000 de33 cd38 c5c3 7e3a
000001e0: a3bf d739 93c5 3a2c a36a a637 4168 6735
000001f0: 0357 6c37 da14 8438 0ce0 4f3a d7ae 6338
2.2795195e-06 0.0001691198 0.00010011697 0.0 0.0005907212 0.00034611303 0.00012341875 3.1997337e-12
0.00045535323 1.410527e-05 0.0 0.00095980294 5.8390153e-05 8.615194e-05 0.00010407784 4.349629e-08
9.688331e-10 1.2720945e-05 0.00020791081 0.0001781881 0.00014926888 0.0 0.00011182505 0.0009947163
0.00040455832 1.2839175e-11 1.8338998e-05 6.4235184e-07 1.3747284e-05 6.372009e-05 0.00081339746 5.5585268e-05
2.1258445e-10 9.327109e-06 2.462037e-05 0.0 9.444891e-05 4.292161e-05 2.8403982e-05 1.8592433e-11
3.871357e-05 9.750412e-06 0.0 2.8503166e-05 4.3872908e-05 6.1503774e-06 5.2196374e-06 1.3715495e-08
7.614294e-09 1.448396e-05 1.8296056e-05 3.8083044e-06 4.9378454e-05 0.0 1.753097e-05 2.7070455e-05
0.00014787275 1.2944895e-10 2.204616e-05 9.931983e-07 8.700542e-06 4.917432e-06 6.144845e-05 1.8117037e-06
3.325101e-10 3.871747e-06 1.6474776e-05 0.0 4.5218218e-05 1.2834556e-05 1.9249053e-05 2.8410683e-14
1.8469631e-05 6.1988103e-06 0.0 1.2079792e-05 1.6431048e-05 6.072876e-06 2.086005e-06 2.5005122e-08
3.0563216e-09 4.807533e-06 1.1726999e-05 1.9451331e-06 1.7205419e-05 0.0 9.790248e-06 1.2434134e-05
6.181605e-05 1.4601303e-10 6.7368537e-06 4.907431e-07 4.1358317e-06 3.7512216e-06 2.4336956e-05 7.224883e-07
2.2937859e-06 0.00016826704 9.721785e-05 0.0 0.00058254163 0.0003366505 0.00012514692 5.5439446e-12
0.00044768964 1.1204871e-05 0.0 0.00093256886 5.8429294e-05 8.5501655e-05 0.00010259 4.97482e-09
7.0777545e-10 1.4183843e-05 0.00020167603 0.00017463896 0.00015144012 0.0 9.784823e-05 0.0009718503
0.00041150776 2.6541865e-12 1.9838399e-05 8.6205915e-07 1.4086955e-05 6.2981344e-05 0.0007929809 5.428385e-05

exp_avg f4 [4]
00000000: 4243 b636 5df2 b6b4 0857 ca36 9595 3ab7
5.4318525e-06 -3.4076484e-07 6.030201e-06 -1.1121291e-05

exp_avg_sq f4 [4]
00000000: 5ca1 9f39 9c82 c438 3fbf 2138 f7c0 ab39
0.00030447065 9.370336e-05 3.8563503e-05 0.00032759432
