logs/comparison_reinforce_coordinates/reinforce_episode_500.pt (torch, 47679 bytes, 18 tensors)

network.0.weight f4 [64, 2]
0.26275325 0.31229517 0.04846453 -0.13622126 -0.14968593 -0.18210207 0.17755647 0.11599597
-0.2442581 -0.28394064 -0.08338995 0.018005874 -0.01803434 -0.057383176 -0.05481049 0.17347229
0.3084911 -0.22291656 0.2782322 0.022127677 0.021121405 0.34194723 -0.0422012 -0.05408893
-0.054638103 0.23198532 0.10714845 -0.2880702 0.12517756 -0.29908007 -0.12348612 0.007642478
-0.22501001 0.1760154 -0.068561435 -0.154428 -0.10928872 -0.011723909 0.014790149 0.2036724
0.26445058 0.072356 -0.18167996 0.3406411 -0.038839705 -0.037494898 -0.25932917 -0.2097551
0.17435159 0.07936038 -0.061807107 -0.23001373 -0.26873067 0.2135766 -0.025456801 0.1856733
-0.106578946 -0.29080775 -0.093667194 -0.09708285 0.1873622 0.1366905 -0.13221732 0.23091282
0.043731738 0.16043334 -0.2458939 0.21885404 -0.13533881 0.30867812 -0.25292197 0.1389989
0.20726357 -0.25232366 -0.24811465 0.17576857 -0.004930798 -0.08104367 0.00041092676 0.2652286
-0.27191034 0.11484741 0.16759084 -0.17183995 -0.24877164 0.16486591 -0.07951958 -0.1777154
-0.2933983 -0.12834378 0.15914142 0.15946111 -0.23643771 0.12913638 0.17398342 0.24441822
0.20506331 0.24713515 0.26166007 0.003424246 -0.052014064 0.19236346 0.09841221 0.28509197
-0.08171408 -0.08139623 0.18795079 -0.11969527 0.07402037 0.1406017 -0.09663011 -0.24858193
0.24283242 -0.17628272 -0.07204809 0.36778384 -0.20310174 -0.08601059 0.3365424 -0.2917745
-0.11262419 -0.17166078 0.19620281 0.24959305 0.017497737 0.2960515 0.080815665 -0.2340445
00000000: 9887 863e 27e5 9f3e be82 463d 967d 0bbe
00000010: 4547 19be f778 3abe 5dd1 353e 4c8f ed3d
00000020: cc1e 7abe ab60 91be 5ac8 aabd 0e81 933c
00000030: c1bc 93bc 9f0a 6bbd f780 60bd b8a2 313e
00000040: 8cf2 9d3e 3d44 64be 7374 8e3e 1a45 b53c
00000050: cc06 ad3c b513 af3e 2adb 2cbd 5b8c 5dbd
00000060: 34cc 5fbd 8f8d 6d3e a670 db3d f07d 93be
00000070: 8c2e 003e 0621 99be 4ae6 fcbd c16d fa3b
00000080: 0669 66be 623d 343e f069 8cbd 6022 1ebe
00000090: c4d2 dfbd a315 40bc 6252 723c 7f8f 503e
000000a0: 1166 873e 622f 943d 500a 3abe 8368 ae3e
000000b0: 6216 1fbd 4094 19bd cbc6 84be 0aca 56be
000000c0: 3989 323e b287 a23d 7329 7dbd b888 6bbe
000000d0: 1197 89be d3b3 5a3e c88a d0bc 2421 3e3e
000000e0: 1046 dabd c1e4 94be 96d4 bfbd 60d3 c6bd
000000f0: e0db 3f3e 98f8 0b3e fa63 07be 6974 6c3e
00000100: 0d20 333d a348 243e 9ccb 7bbe 461b 603e
00000110: 4296 0abe 0f0b 9e3e fd7e 81be ba55 0e3e
00000120: e73c 543e 9130 81be c411 7ebe adfc 333e
00000130: 8892 a1bb 39fa a5bd a871 d739 0bcc 873e
00000140: d537 8bbe 1e35 eb3d ef9c 2b3e d0f6 2fbe
00000150: febd 7ebe 9cd2 283e 29db a2bd 07fb 35be
00000160: 4d38 96be 8d6c 03be f8f5 223e c649 233e
00000170: ba1c 72be 543c 043e b628 323e c548 7a3e
00000180: 1efc 513e ff10 7d3e 4ff8 853e 5169 603b
00000190: b30c 55bd edfa 443e 578c c93d 93f7 913e
000001a0: b659 a7bd 11b3 a6bd 2c76 403e cb22 f5bd
000001b0: fe97 973d e4f9 0f3e 02e6 c5bd 438c 7ebe
000001c0: 10a9 783e 7583 34be f38d 93bd 2a4e bc3e
000001d0: e7f9 4fbe 5226 b0bd 494f ac3e 7863 95be
000001e0: 83a7 e6bd d8c7 2fbe 64e9 483e 5295 7f3e
000001f0: 6a57 8f3c 1094 973e af82 a53d 5da9 6fbe

network.0.bias f4 [64]
0.04538767 0.011343138 0.0 -0.031277243 0.0 0.0 0.0 0.05505203
0.049486108 0.005712528 0.036035728 0.0 0.0622099 -0.004090122 -0.024799809 0.0
0.013296034 0.0 0.0 -0.026086422 0.052039694 0.03830742 0.0 0.0
0.021703131 0.0 -0.04746996 0.06867068 0.0 0.0 -0.02911037 -0.0046714502
0.04676488 -0.049493257 -0.004368558 -0.042224 0.040124785 -0.008771289 0.0 0.049333956
0.005772592 0.03208043 0.028539151 0.0 0.0 0.060150605 -0.030207291 0.03775929
-0.04339741 -0.025071986 -0.035393476 -0.0321698 0.0 0.04132191 -0.03003013 0.0
-0.04839488 0.08732518 0.0 0.060664147 0.0 0.014931434 0.05463994 0.020200865
00000000: 6ce8 393d 92d8 393c 0000 0000 911c 00bd
00000010: 0000 0000 0000 0000 0000 0000 3d7e 613d
00000020: f2b1 4a3d 2830 bb3b 339a 133d 0000 0000
00000030: cfcf 7e3d 6e06 86bb f828 cbbc 0000 0000
00000040: 9cd7 593c 0000 0000 0000 0000 31b3 d5bc
00000050: 9327 553d 3ee8 1c3d 0000 0000 0000 0000
00000060: c4ca b13c 0000 0000 dc6f 42bd 37a3 8c3d
00000070: 0000 0000 0000 0000 df78 eebc f712 99bb
00000080: 888c 3f3d 71b9 4abd 1f26 8fbb 13f3 2cbd
00000090: e359 243d 74b5 0fbc 0000 0000 6712 4a3d
000000a0: 0328 bd3b c566 033d f0ca e93c 0000 0000
000000b0: 0000 0000 7b60 763d 4875 f7bc 7ca9 1a3d
000000c0: 7cc1 31bd c463 cdbc c0f8 10bd 7bc4 03bd
000000d0: 0000 0000 2a41 293d bf01 f6bc 0000 0000
000000e0: b639 46bd 8bd7 b23d 0000 0000 f87a 783d
000000f0: 0000 0000 f9a2 743c 21ce 5f3d 497c a53c

network.2.weight f4 [32, 64]
-0.03553888 0.014616162 -0.07272267 -0.2007552 -0.008668035 -0.030942619 -0.05836436 0.21664076
0.029347003 -0.16446754 0.16479862 -0.03853315 0.088318765 -0.08349109 0.15013722 0.15732762
0.22064954 -0.15789965 0.065801054 -0.0038779762 0.08327292 0.03407353 0.0060354173 0.12814787
-0.1552142 -0.17554757 -0.051168304 -0.04046904 -0.20022458 0.14705488 -0.14822492 -0.08223027
-0.057922337 0.11736067 0.08743998 -0.059190508 0.20045549 0.21005149 0.14477623 0.104016624
0.025052508 -0.17415258 0.23598765 -0.08789098 0.020795643 0.09020812 0.086130664 -0.2512447
0.08895759 -0.18369366 -0.13588707 -0.22330962 0.07820481 -0.14338285 -0.23534662 -0.14499849
-0.001908958 0.09317493 0.034433782 -0.21125841 -0.17672902 -0.0671007 0.024258245 0.13909012
-0.10722254 0.20975146 0.017981797 0.12889664 0.10270676 0.022047788 -0.23963952 0.2156775
-0.17244306 0.20096815 0.24340804 -0.113443315 -0.0029155135 -0.02014297 -0.06313415 -0.054332912
-0.15444535 0.009970397 0.18986186 -0.12903748 0.2721055 -0.22375499 -0.060988307 -0.11006197
-0.19922246 0.22061124 -0.10080405 0.113525264 -0.24839962 -0.0429554 0.2575414 0.11611202
-0.098038666 -0.17206773 0.086114384 0.22719735 0.25341523 -0.13300093 0.22857484 0.10491943
-0.07782017 -0.049773157 0.2769598 0.037160993 -0.09569132 0.16978599 -0.12042635 0.2581648
-0.051909078 -0.073829055 0.021093769 -0.045338057 0.03855118 -0.21741661 -0.118989535 -0.23911443
0.04301299 0.098841466 0.15147084 -0.21973014 -0.24885085 0.15154284 -0.11927911 0.14971109
0.17832863 -0.00057629024 -0.21054849 -0.10433997 0.03987825 -0.08545339 0.038683504 -0.22553942
0.06827438 0.23098226 -0.016473116 0.19616139 0.067562275 0.10080473 0.19671728 0.024489999
0.06234223 -0.042975992 -0.21116376 -0.04592503 -0.038886644 0.05833226 0.15084282 -0.18651393
0.003064536 0.14003715 0.08797664 -0.05098581 -0.1848658 -0.020717025 -0.051570296 -0.17569251
0.1585874 -0.04381484 -0.13026547 -0.09656714 0.22511014 0.19174299 -0.04049626 -0.10280899
-0.06308145 0.111200474 0.027406 -0.022471339 0.101475835 0.16903505 -0.2736807 -0.18342417
0.007523863 0.09156314 0.015747134 -0.15086341 0.14680481 0.263917 -0.1647276 0.1286788
0.0073179877 -0.041217525 -0.22020802 0.053575646 -0.033739686 0.123557456 -0.06256734 -0.022349373
-0.10310298 -0.038696945 -0.06608418 -0.16010374 -0.12236524 0.04479161 0.13886452 -0.18386361
0.15938869 -0.21011224 -0.2284747 -0.008629233 0.18171889 0.17198345 -0.22161847 0.10183594
-0.2383965 0.24798623 -0.08637139 -0.14214799 0.0506514 -0.22209334 0.1002737 -0.066859275
-0.08762112 -0.24817446 0.12028378 0.2480664 -0.22287229 -0.09032494 0.22194633 -0.05076453
0.23871568 0.21360233 0.20884609 -0.12870815 -0.12739533 0.07036513 -0.18556005 0.07777932
-0.24110836 0.084614605 -0.1848726 -0.24523228 0.038109988 -0.092497915 0.17393047 -0.06791282
-0.08329019 0.019987166 -0.037730932 0.13661054 0.040514052 0.049618185 0.12814412 0.062000424
0.04204902 -0.07183576 -0.21517429 -0.14236265 -0.011939943 0.10583907 -0.24449852 0.2301608
00000000: 3791 11bd a078 6f3c a0ef 94bd c592 4dbe
00000010: 6004 0ebc 607b fdbc 780f 6fbd 13d7 5d3e
00000020: 2069 f03c 2e6a 28be f8c0 283e f0d4 1dbd
00000030: 78e0 b43d 60fd aabd 92bd 193e 7e1a 213e
00000040: f4f1 613e 72b0 21be b4c2 863d a525 7ebb
00000050: fe8a aa3d b090 0b3d c0c4 c53b 3239 033e
00000060: 79f0 1ebe bec2 33be db95 51bd ddc2 25bd
00000070: ac07 4dbe 8e95 163e 46c8 17be 5868 a8bd
00000080: f93f 6dbd ca5a f03d bb13 b33d bf71 72bd
00000090: 3444 4d3e bd17 573e 3840 143e ab06 d53d
000000a0: eb3a cd3c 0e55 32be bfa6 713e 3000 b4bd
000000b0: a05b aa3c 09bf b83d 4665 b03d 25a3 80be
000000c0: 662f b63d 311a 3cbe fb25 0bbe 47ab 64be
000000d0: d829 a03d f4d2 12be b4fe 70be 7c7a 14be
000000e0: 0036 faba 7fd2 be3d 700a 0d3d 2054 58be
000000f0: 74f8 34be 186c 89bd 3ab9 c63c a46d 0e3e
00000100: 7e97 dbbd 16c9 563e 904e 933c 7bfd 033e
00000110: ec57 d23d 909d b43c 1064 75be 90da 5c3e
00000120: ea94 30be 98ca 4d3e f53f 793e f854 e8bd
00000130: 3312 3fbb df02 a5bc 7a4c 81bd 308c 5ebd
00000140: ec26 1ebe e05a 233c 266b 423e 6722 04be
00000150: 6951 8b3e 0720 65be e0ce 79bd 2c68 e1bd
00000160: f900 4cbe eae7 613e 5b72 cebd ef7f e83d
00000170: 785c 7ebe 00f2 2fbd 77dc 833e 24cc ed3d
00000180: 7fc8 c8bd 8632 30be bd5c b03d 6ca6 683e
00000190: a4bf 813e 6531 08be 860f 6a3e 00e0 d63d
000001a0: 2e60 9fbd f0de 4bbd adcd 8d3e 2036 183d
000001b0: d0f9 c3bd 61dc 2d3e 17a2 f6bd 2d2e 843e
000001c0: 9d9e 54bd b033 97bd d7cc ac3c 66b4 39bd
000001d0: d8e7 1d3d 76a2 5ebe c9b0 f3bd 6ada 74be
000001e0: 642e 303d 656d ca3d 2c1b 1b3e f000 61be
000001f0: c2d2 7ebe 0c2e 1b3e 9b48 f4bd dd4d 193e
00000200: c89b 363e 2f12 17ba 069a 57be 32b0 d5bd
00000210: 6057 233d 3002 afbd 9872 1e3d cef3 66be
00000220: 70d3 8b3d 9d86 6c3e a1f2 86bc 88de 483e
00000230: 175e 8a3d b672 ce3d 4170 493e 409f c83c
00000240: 915a 7f3d 9807 30bd 503b 58be e21b 3cbd
00000250: 9a47 1fbd cfed 6e3d 8a76 1a3e 82fd 3ebe
00000260: 62d6 483b e665 0f3e 192d b43d 7fd6 50bd
00000270: 764d 3dbe c0b6 a9bc 603b 53bd bde8 33be
00000280: bc64 223e 3177 33bd 5064 05be fec4 c5bd
00000290: 4683 663e 4658 443e 68df 25bd 858d d2bd
000002a0: d930 81bd 13bd e33d 8c82 e03c d015 b8bc
000002b0: 90d2 cf3d 8617 2d3e e01f 8cbe 8cd3 3bbe
000002c0: bd8a f63b 7585 bb3d 2200 813c f07b 1abe
000002d0: 0054 163e 2120 873e 5aae 28be 60c4 033e
000002e0: bbcb ef3b b5d3 28bd 367e 61be 2372 5b3d
000002f0: a032 0abd b10b fd3d 4e23 80bd 0816 b7bc
00000300: a827 d3bd b080 1ebd 2457 87bd 3cf2 23be
00000310: a09a fabd 6877 373d 8032 0e3e be46 3cbe
00000320: ca36 233e aa27 57be 46f5 69be a061 0dbc
00000330: 8414 3a3e 6e1c 303e f4ef 62be 5c8f d03d
00000340: 361e 74be 1af0 7d3e 7ce3 b0bd 3e8f 11be
00000350: d877 4f3d 706c 63be 4c5c cd3d 84ed 88bd
00000360: b472 b3bd 7221 7ebe 5857 f63d 1e05 7e3e
00000370: a238 64be 48fc b8bd e645 633e 78ee 4fbd
00000380: e271 743e 92ba 5a3e c0db 553e 12cc 03be
00000390: ec73 02be 981b 903d 7403 3ebe c44a 9f3d
000003a0: 1ce5 76be 6c4a ad3d 3e4f 3dbe 2c1e 7bbe
000003b0: 3819 1c3d 8c6f bdbd d41a 323e e015 8bbd
000003c0: 0c94 aabd 20bc a33c c08b 1abd a2e3 0b3e
000003d0: 10f2 253d 703c 4b3d 3638 033e 28f4 7d3d
000003e0: 983b 2c3d a01e 93bd a656 5cbe 84c7 11be
000003f0: c09f 43bc 28c2 d83d d25d 7abe 46af 6b3e

network.2.bias f4 [32]
-0.015121452 0.011244077 0.05282872 0.0 0.06663744 0.027824005 0.04446465 -0.0051262397
0.038480245 -0.040837355 0.0 0.06711133 -0.046689957 0.023662025 0.007066609 -0.020097978
-0.009588289 -0.031438757 0.0258909 0.02887902 -0.010678694 0.0 -0.064987056 0.032440178
-0.022332191 -0.01054531 -0.04116243 -0.011235256 -0.030699776 0.03398854 0.03346052 0.018130073
00000000: f7bf 77bc 1439 383c ee62 583d 0000 0000
00000010: 3679 883d 2bef e33c 9120 363d 04fa a7bb
00000020: 769d 1d3d 1245 27bd 0000 0000 aa71 893d
00000030: f83d 3fbd ddd6 c13c 038f e73b 84a4 a4bc
00000040: 3318 1dbc edc5 00bd 2719 d43c b293 ec3c
00000050: b0f5 2ebc 0000 0000 ef17 85bd fedf 043d
00000060: 00f2 b6bc 3cc6 2cbc f099 28bd 1414 38bc
00000070: 197e fbbc 9137 0b3d e60d 093d 8585 943c

network.4.weight f4 [4, 32]
0.27817395 0.29103625 0.38473007 -0.0814096 0.3194605 0.012669044 0.25106734 -0.05079102
0.43683663 -0.08855194 0.23042199 0.116042756 -0.19926433 0.3300484 0.23483841 -0.2977371
-0.38115743 -0.29806224 0.32185698 -0.12776133 -0.14893506 0.4022952 0.2831305 0.33625433
0.35456243 0.3259497 -0.17704104 0.03145934 -0.3349602 0.0052161748 0.24268723 -0.26869413
0.24435528 0.21071866 -0.2530268 -0.3693245 -0.1618179 0.054306313 -0.42997628 -0.37820572
0.092401035 -0.021131607 -0.24999712 -0.46778142 0.28303933 -0.07708895 0.098235264 0.100876376
-0.13481821 -0.028808413 -0.08057332 -0.37221503 0.26446873 -0.31838703 0.07713614 -0.3515425
0.2122281 -0.16547415 0.34415463 0.27947277 -0.1582994 -0.31678656 0.31315866 0.22502594
0.3567864 0.13059777 -0.21040931 -0.29915306 -0.182703 -0.22334957 -0.24071886 -0.08273074
-0.31611702 -0.10938983 -0.13653305 -0.3535457 0.38387254 0.013024291 -0.4354538 0.03092672
-0.08636205 -0.40834492 0.23190898 -0.05110389 -0.071836606 0.40190655 0.047199205 0.28699
0.08674158 -0.32404655 0.21510482 -0.16475004 0.29124093 0.059734054 0.017055243 -0.31720564
-0.24116136 0.24149612 -0.11717108 0.26776165 0.11278432 0.12197865 -0.17392749 -0.41204137
0.016546207 -0.24645397 -0.0607439 0.35241923 -0.19221017 0.10359913 -0.1065451 -0.03986512
0.29229596 -0.097332224 0.10468369 0.08230565 0.31878287 -0.23216334 -0.13688396 0.364739
-0.095994465 -0.08035498 0.057241622 0.083762094 -0.38549376 -0.042233665 0.44049022 0.3506576
00000000: d16c 8e3e b402 953e 57fb c43e 14ba a6bd
00000010: 5490 a33e d291 4f3c e68b 803e 3f0a 50bd
00000020: 0da9 df3e b85a b5bd bef3 6b3e d3a7 ed3d
00000030: f30b 4cbe 1bfc a83e 7b79 703e ff70 98be
00000040: 1127 c3be 9d9b 98be 70ca a43e ded3 02be
00000050: 6f82 18be a3f9 cd3e 7bf6 903e 8729 ac3e
00000060: 3589 b53e e1e2 a63e 3f4a 35be 82db 003d
00000070: e77f abbe 72ec aa3b 0083 783e 4792 89be
00000080: 4538 7a3e a2c6 573e bb8c 81be 1a18 bdbe
00000090: 97b3 25be 4c70 5e3d da25 dcbe 2ea4 c1be
000000a0: c13c bd3d 311c adbc 3fff 7fbe 0c81 efbe
000000b0: 88ea 903e d0e0 9dbd 922f c93d 4698 ce3d
000000c0: c90d 0abe 9fff ebbc a003 a5bd f892 bebe
000000d0: 7268 873e a003 a3be 8df9 9d3d 61fd b3be
000000e0: 5352 593e 0e72 29be 0935 b03e 0e17 8f3e
000000f0: 3d19 22be d931 a2be 5556 a03e 336d 663e
00000100: b5ac b63e 6cbb 053e 8a75 57be 972a 99be
00000110: 7f16 3bbe c0b5 64be 017f 76be bc6e a9bd
00000120: 17da a1be c607 e0bd 52cf 0bbe f103 b5be
00000130: f18a c43e d663 553c cdf3 debe 085a fd3c
00000140: 96de b0bd 9612 d1be 8c79 6d3e 5052 51bd
00000150: 121f 93bd b2c6 cd3e f453 413d 5af0 923e
00000160: 92a5 b13d 6ee9 a5be 7044 5c3e 3cb4 28be
00000170: 881d 953e b2ab 743d 70b7 8b3c c768 a2be
00000180: 01f3 76be c24a 773e 64f7 efbd 0e18 893e
00000190: 77fb e63d f1cf f93d 0c1a 32be 16f7 d2be
000001a0: e98b 873c 6e5e 7cbe 98ce 78bd 4b70 b43e
000001b0: bed2 44be c82b d43d 5134 dabd 9c49 23bd
000001c0: d1a7 953e 1e56 c7bd 6764 d63d dd8f a83d
000001d0: 8237 a33e 3abc 6dbe 4f2b 0cbe 12bf ba3e
000001e0: bf98 c4bd 2791 a4bd 3176 6a3d 768b ab3d
000001f0: 705f c5be 35fd 2cbd ef87 e13e 6589 b33e

network.4.bias f4 [4]
0.038105007 -0.045684546 -0.046413008 0.042125367
00000000: ff13 1c3d b81f 3bbd 911b 3ebd a68b 2c3d

exp_avg f4 [64, 2]
-0.0035640576 -0.0007081114 -0.0012279836 -1.2251989e-05 0.0 0.0 -0.0002044586 -0.00055400055
0.0 0.0 0.0 0.0 0.0 0.0 -0.0031562317 -0.0024902504
-0.0028491174 -0.00032070026 -0.001385265 -0.00033510796 0.0022469882 -0.0004890382 0.0 0.0
-0.001381379 -0.0017826898 0.0018190925 6.9795324e-06 -0.000618998 -1.4354938e-05 0.0 0.0
0.000870422 0.00050098915 0.0 0.0 0.0 0.0 -0.00081209437 -0.0022449533
-0.0038168232 -0.0015016964 -0.0038290373 -0.0025087046 0.0 0.0 0.0 0.0
-0.00084943103 0.0012131076 0.0 0.0 0.00078010955 0.00077877915 -0.0075558424 -0.0032626512
0.0 0.0 0.0 0.0 0.00046094946 -0.00047114986 -0.0014443405 -0.0017221759
0.0008982279 0.00027654198 0.0009844182 0.0008548779 -0.001136728 -0.0008453202 0.0006258827 8.7380016e-05
-0.007817014 -0.002243242 0.0019459495 0.0015798802 0.0 0.0 -0.0012431241 -0.002428811
-0.0005999851 -0.0024578958 -0.0037614515 0.0009008199 -0.002460406 -0.0021613815 0.0 0.0
0.0 0.0 -0.0037511548 -0.0037409365 0.00068326085 -0.0012576338 0.0011838136 -0.00079922547
-0.0007411339 0.00010491538 -0.0011912778 3.8625592e-05 -0.00048671445 -0.0011745386 0.0005838941 -0.0006394784
0.0 0.0 -0.0032990717 -0.0007503871 0.0025504162 0.001067089 0.0 0.0
0.0013780135 2.4784847e-05 -0.0062126946 -0.005276465 0.0 0.0 -0.0030750593 8.416277e-05
0.0 0.0 -0.0006193965 -0.00037371932 0.0012085232 -0.0011131347 -0.0014279012 -4.8887137e-05
00000000: f792 69bb 8da0 39ba 4bf4 a0ba e48d 4db7
00000010: 0000 0000 0000 0000 f063 56b9 593a 11ba
00000020: 0000 0000 0000 0000 0000 0000 0000 0000
00000030: 0000 0000 0000 0000 c8d8 4ebb 7833 23bb
00000040: 42b8 3abb a923 a8b9 c891 b5ba 6eb1 afb9
00000050: 3542 133b cc32 00ba 0000 0000 0000 0000
00000060: 630f b5ba 25a9 e9ba 9e6e ee3a ba31 ea36
00000070: 4144 22ba fdd5 70b7 0000 0000 0000 0000
00000080: 082d 643a d054 033a 0000 0000 0000 0000
00000090: 0000 0000 0000 0000 bbe2 54ba 1120 13bb
000000a0: ab23 7abb 92d4 c4ba 96f0 7abb 1469 24bb
000000b0: 0000 0000 0000 0000 0000 0000 0000 0000
000000c0: 5aac 5eba 2301 9f3a 0000 0000 0000 0000
000000d0: 4480 4c3a fc26 4c3a 0097 f7bb 34d2 55bb
000000e0: 0000 0000 0000 0000 0000 0000 0000 0000
000000f0: 97ab f139 aa04 f7b9 0650 bdba a2ba e1ba
00000100: 0e77 6b3a d6fc 9039 9807 813a e219 603a
00000110: 43fe 94ba 7a98 5dba 4712 243a ca3f b738
00000120: ef12 00bc 5b03 13bb 3b0f ff3a fc13 cf3a
00000130: 0000 0000 0000 0000 53f0 a2ba b02c 1fbb
00000140: 5248 1dba a614 21bb af82 76bb 0025 6c3a
00000150: c33e 21bb f7a5 0dbb 0000 0000 0000 0000
00000160: 0000 0000 0000 0000 efd5 75bb 802a 75bb
00000170: dc1c 333a 30d7 a4ba 312a 9b3a 1d83 51ba
00000180: a748 42ba 0406 dc38 a624 9cba ea01 2238
00000190: b52d ffb9 faf2 99ba 7810 193a aba2 27ba
000001a0: 0000 0000 0000 0000 3d35 58bb a0b5 44ba
000001b0: e224 273b 91dd 8b3a 0000 0000 0000 0000
000001c0: 769e b43a 0ee9 cf37 dc93 cbbb 32e6 acbb
000001d0: 0000 0000 0000 0000 ef86 49bb 8b80 b038
000001e0: 0000 0000 0000 0000 ff5e 22ba c2ef c3b9
000001f0: 4f67 9e3a 9ae6 91ba 6a28 bbba 2a0c 4db8

exp_avg_sq f4 [64, 2]
0.00020884244 3.8244598e-05 9.588423e-05 1.3588752e-06 0.0 0.0 0.000210057 4.313212e-05
0.0 0.0 0.0 0.0 0.0 0.0 1.94096e-05 3.347163e-05
0.00016698305 8.0350455e-06 0.00014353376 2.5837824e-05 0.00044182973 9.0152e-05 0.0 0.0
4.7162277e-05 4.9552764e-05 9.7880366e-05 1.7036339e-06 0.0002846465 9.091095e-06 0.0 0.0
1.4270566e-05 7.389353e-05 0.0 0.0 0.0 0.0 0.00011957104 4.9007696e-05
0.00015148993 4.1976527e-05 3.739636e-05 0.0001198191 0.0 0.0 0.0 0.0
0.00024570458 8.452558e-05 0.0 0.0 1.0916454e-05 4.3224423e-05 0.00018822982 0.000116189214
0.0 0.0 0.0 0.0 0.00012955074 1.0133243e-05 1.4129387e-05 2.2384278e-05
7.994702e-05 2.0667458e-05 2.0441279e-05 6.594827e-05 6.859365e-06 2.1686456e-05 3.2143935e-06 2.4669755e-05
0.0003544359 1.2057752e-05 3.2002466e-05 0.00016174756 0.0 0.0 7.639303e-05 6.62267e-05
1.3702768e-06 2.0284102e-05 0.0007543804 4.075758e-05 1.6963044e-05 0.00014645663 0.0 0.0
0.0 0.0 0.00029080373 0.00013526525 1.7502147e-05 0.00015146608 0.00013314429 9.683058e-06
4.293037e-05 3.9951974e-05 5.543863e-05 3.8821338e-05 6.500461e-05 4.8769332e-05 0.0001427562 8.4025305e-05
0.0 0.0 0.00032656654 1.2965019e-05 8.915317e-05 8.694226e-05 0.0 0.0
0.00016940676 1.5831625e-05 0.0001299791 0.00014213371 0.0 0.0 0.00022613519 2.0108033e-05
0.0 0.0 0.00014145147 2.3837569e-05 0.00017730302 1.9278126e-05 0.00017400748 2.4220276e-06
00000000: b7fc 5a39 d368 2038 7415 c938 9962 b635
00000010: 0000 0000 0000 0000 bf42 5c39 c3e8 3438
00000020: 0000 0000 0000 0000 0000 0000 0000 0000
00000030: 0000 0000 0000 0000 ccd1 a237 e463 0c38
00000040: 2c18 2f39 42ce 0637 8d81 1639 4ebe d837
00000050: 62a5 e739 fd0f bd38 0000 0000 0000 0000
00000060: 1cd0 4538 e0d6 4f38 1f45 cd38 6aa8 e435
00000070: 9b3c 9539 f585 1837 0000 0000 0000 0000
00000080: 9d6b 6f37 49f7 9a38 0000 0000 0000 0000
00000090: 0000 0000 0000 0000 37c2 fa38 9d8d 4d38
000000a0: 45d9 1e39 f40f 3038 09da 1c38 6447 fb38
000000b0: 0000 0000 0000 0000 0000 0000 0000 0000
000000c0: e9d1 8039 5343 b138 0000 0000 0000 0000
000000d0: d025 3737 df4b 3538 8f5f 4539 9caa f338
000000e0: 0000 0000 0000 0000 0000 0000 0000 0000
000000f0: 03d8 0739 f301 2a37 410d 6d37 dfc5 bb37
00000100: 3ba9 a738 075f ad37 5079 ab37 b54d 8a38
00000110: 7f29 e636 4feb b537 dcb6 5736 e5f1 ce37
00000120: 95d3 b939 a74b 4a37 633a 0638 c89a 2939
00000130: 0000 0000 0000 0000 3235 a038 30e3 8a38
00000140: 5aea b735 c727 aa37 9dc1 453a 1ef3 2a38
00000150: dc4b 8e37 2792 1939 0000 0000 0000 0000
00000160: 0000 0000 0000 0000 0477 9839 fdd5 0d39
00000170: 93d1 9237 ded2 1e39 a69c 0b39 6b74 2237
00000180: 2210 3438 1b92 2738 c786 6838 18d4 2238
00000190: 1653 8838 ac8d 4c38 d3b0 1539 be36 b038
000001a0: 0000 0000 0000 0000 0537 ab39 5584 5937
000001b0: bef7 ba38 c554 b638 0000 0000 0000 0000
000001c0: c8a2 3139 28ce 8437 004b 0839 ba09 1539
000001d0: 0000 0000 0000 0000 b41e 6d39 acad a837
000001e0: 0000 0000 0000 0000 9752 1439 caf6 c737
000001f0: 6bea 3939 76b7 a137 c775 3639 1e8a 2236

exp_avg f4 [64]
-0.0028638975 -0.0008727972 0.0 0.00015469262 0.0 0.0 0.0 -0.0016967595
-0.0017368502 -0.0011204759 0.000573357 0.0 -0.00048788742 0.0011848923 -2.5854783e-05 0.0
0.00021276186 0.0 0.0 2.9241717e-05 -0.0025599347 -0.0021953695 0.0 0.0
-0.0012888904 0.0 0.00027478696 -0.0038528717 0.0 0.0 0.0004442742 -0.00070179556
0.0002880218 0.00030991455 -0.0007021944 4.0214174e-05 -0.0048282007 0.0005877568 0.0 -0.00042633075
-0.0005999851 -0.0023342876 -0.00078441435 0.0 0.0 -0.0022836293 -0.00026990642 0.0004218822
-0.00068562565 -0.0006319349 -9.087563e-05 0.0002608803 0.0 -0.0026540381 0.00070504926 0.0
0.0010013117 -0.003053247 0.0 -0.0021340775 0.0 -0.0005832639 0.00035382324 -0.0010195741
00000000: 3ab0 3bbb 6ecc 64ba 0000 0000 fc34 2239
00000010: 0000 0000 0000 0000 0000 0000 cd65 deba
00000020: 06a7 e3ba efdc 92ba 564d 163a 0000 0000
00000030: 24cb ffb9 634e 9b3a b9e2 d8b7 0000 0000
00000040: d418 5f39 0000 0000 0000 0000 1c4c f537
00000050: 94c4 27bb 30e0 0fbb 0000 0000 0000 0000
00000060: fcef a8ba 0000 0000 4811 9039 7680 7cbb
00000070: 0000 0000 0000 0000 79ed e839 b4f8 37ba
00000080: a201 9739 077c a239 7813 38ba a4ab 2838
00000090: e235 9ebb b113 1a3a 0000 0000 2585 dfb9
000000a0: 5248 1dba d9fa 18bb 28a1 4dba 0000 0000
000000b0: 0000 0000 f1a8 15bb 3a82 8db9 1230 dd39
000000c0: 8fbb 33ba 6fa8 25ba 7b94 beb8 c3c6 8839
000000d0: 0000 0000 5fef 2dbb 0ed3 383a 0000 0000
000000e0: 723e 833a fc18 48bb 0000 0000 e1db 0bbb
000000f0: 0000 0000 2ee6 18ba 5a81 b939 3ba3 85ba

exp_avg_sq f4 [64]
1.9180232e-05 7.4049185e-06 0.0 1.7204671e-05 0.0 0.0 0.0 4.1298085e-06
1.3858124e-05 1.1595965e-05 3.8237817e-05 0.0 7.9361735e-06 6.974574e-06 2.1449137e-05 0.0
6.2011823e-06 0.0 0.0 1.17007485e-05 1.5349558e-05 1.0241456e-05 0.0 0.0
2.4713365e-05 0.0 4.1556827e-06 2.7431606e-05 0.0 0.0 9.458445e-06 3.10037e-06
7.502728e-06 5.346507e-06 1.9312351e-06 2.0721977e-06 2.9673402e-05 1.3148938e-05 0.0 1.1417974e-05
1.3702768e-06 6.0433056e-05 1.0932895e-05 0.0 0.0 3.4233668e-05 1.2217782e-05 1.2239873e-05
6.051571e-06 6.164195e-06 7.650873e-06 1.6668802e-05 0.0 2.849957e-05 1.3382372e-05 0.0
1.171128e-05 2.49054e-05 0.0 1.9211264e-05 0.0 1.1436017e-05 1.8002824e-05 1.2512486e-05
00000000: 3ce5 a037 c477 f836 0000 0000 c052 9037
00000010: 0000 0000 0000 0000 0000 0000 c992 8a36
00000020: 3080 6837 4a8c 4237 8b61 2038 0000 0000
00000030: 9b25 0537 2207 ea36 aced b337 0000 0000
00000040: c013 d036 0000 0000 0000 0000 554e 4437
00000050: edc2 8037 b8d2 2b37 0000 0000 0000 0000
00000060: 8c4f cf37 0000 0000 0b71 8b36 ed1c e637
00000070: 0000 0000 0000 0000 b6af 1e37 f30f 5036
00000080: f1bf fb36 2566 b336 5e9a 0136 1610 0b36
00000090: 25eb f837 429a 5c37 0000 0000 d38f 3f37
000000a0: 5aea b735 8079 7d38 6d6c 3737 0000 0000
000000b0: 0000 0000 1f96 0f38 f9fa 4c37 db59 4d37
000000c0: 990e cb36 08d6 ce36 405c 0037 fbd3 8b37
000000d0: 0000 0000 5c12 ef37 da84 6037 0000 0000
000000e0: 917b 4437 f0eb d037 0000 0000 e027 a137
000000f0: 0000 0000 52dd 3f37 c504 9737 b8ec 5137

exp_avg f4 [32, 64]
2.8532402e-22 0.0 0.0 1.2331081e-22 0.0 0.0 0.0 9.963649e-23
0.0 5.4555796e-23 2.7216491e-22 0.0 1.5642319e-22 0.0 0.0 0.0
9.120807e-23 0.0 0.0 1.5489623e-22 7.6112026e-23 2.2557567e-22 0.0 0.0
1.2383882e-22 0.0 1.5648197e-22 1.199411e-22 0.0 0.0 1.2274214e-22 1.6630189e-22
1.231417e-22 1.4731788e-22 2.0262778e-22 7.3215954e-23 0.0 1.0432469e-22 0.0 1.883996e-22
2.44175e-23 0.0 4.3853567e-23 0.0 0.0 1.1901652e-22 7.14803e-23 2.3430949e-22
2.5853097e-22 4.841754e-23 1.3212357e-22 2.3787857e-22 0.0 0.0 1.3306887e-22 0.0
0.0 2.3762565e-22 0.0 0.0 0.0 2.514024e-22 2.1050111e-22 0.0
7.668436e-05 4.905562e-06 0.0 4.51917e-05 0.0 0.0 0.0 2.3138417e-05
-7.423605e-05 3.7553244e-05 5.2568997e-05 0.0 3.285152e-05 1.4630522e-05 1.8542783e-05 0.0
-3.8492824e-05 0.0 0.0 3.9019706e-05 3.5707308e-05 5.372292e-05 0.0 0.0
3.2670094e-05 0.0 -5.194989e-05 2.1210439e-05 0.0 0.0 5.0595256e-05 2.6661279e-05
2.5203748e-05 -4.203881e-05 5.125605e-05 -5.711563e-05 -3.2262276e-05 -4.9685066e-05 0.0 3.2819153e-05
-4.040525e-05 -3.541694e-05 -5.4849173e-05 0.0 0.0 3.3727643e-05 -5.399961e-05 5.361201e-05
7.6359625e-05 3.7080987e-05 3.2594686e-05 6.544097e-05 0.0 -4.593166e-05 3.966282e-05 0.0
-3.3973396e-05 5.355254e-05 0.0 -7.760289e-05 0.0 6.408036e-05 4.0105024e-05 8.866091e-06
-0.0012005857 -0.00013358847 0.0 -0.00067167496 0.0 0.0 0.0 0.00016744937
-0.0017169253 -0.0013029893 -3.7034533e-05 0.0 0.000190304 -0.000239174 -0.00022731767 0.0
4.517768e-05 0.0 0.0 0.00012316782 -0.0013631756 0.00058567844 0.0 0.0
-0.0008342632 0.0 3.2669785e-05 4.9307368e-05 0.0 0.0 -0.00070850854 0.00034875178
-0.00026691207 5.4662527e-05 0.00049829803 2.0652931e-07 -0.0010279333 1.9852598e-05 0.0 -3.3016237e-05
6.177919e-08 -0.0009142103 2.3213738e-06 0.0 0.0 -0.00086403574 1.0523432e-07 -0.0008250362
-0.00066351925 -0.0011362965 0.00025489434 -0.00019651107 0.0 -0.001070071 -0.00016693064 0.0
-0.0010384903 0.00028482662 0.0 -0.0018717676 0.0 -0.00082467316 -0.000115344286 -0.00022366579
0.0 0.0 0.0 0.0 0.0 0.0 0.0 0.0
0.0 0.0 0.0 0.0 0.0 0.0 0.0 0.0
0.0 0.0 0.0 0.0 0.0 0.0 0.0 0.0
0.0 0.0 0.0 0.0 0.0 0.0 0.0 0.0
0.0 0.0 0.0 0.0 0.0 0.0 0.0 0.0
0.0 0.0 0.0 0.0 0.0 0.0 0.0 0.0
0.0 0.0 0.0 0.0 0.0 0.0 0.0 0.0
0.0 0.0 0.0 0.0 0.0 0.0 0.0 0.0
00000000: c177 ac1b 0000 0000 0000 0000 d912 151b
00000010: 0000 0000 0000 0000 0000 0000 00e8 f01a
00000020: 0000 0000 67e8 831a 7b83 a41b 0000 0000
00000030: a21a 3d1b 0000 0000 0000 0000 0000 0000
00000040: 1087 dc1a 0000 0000 0000 0000 1042 3b1b
00000050: 1007 b81a 255a 881b 0000 0000 0000 0000
00000060: 42b6 151b 0000 0000 d32c 3d1b f9ff 101b
00000070: 0000 0000 0000 0000 da62 141b f10b 491b
00000080: 83de 141b ad18 321b 43f6 741b 7b06 b11a
00000090: 0000 0000 db3d fc1a 0000 0000 dac2 631b
000000a0: cd26 ec19 0000 0000 1610 541a 0000 0000
000000b0: 0000 0000 d4e1 0f1b 2ad4 ac1a a3a1 8d1b
000000c0: bb45 9c1b 0322 6a1a 44ba 1f1b edc9 8f1b
000000d0: 0000 0000 0000 0000 d2de 201b 0000 0000
000000e0: 0000 0000 caa2 8f1b 0000 0000 0000 0000
000000f0: 0000 0000 a3f6 971b f07a 7e1b 0000 0000
00000100: 9ad1 a038 759a a436 0000 0000 388c 3d38
00000110: 0000 0000 0000 0000 0000 0000 5f19 c237
00000120: 2daf 9bb8 7d82 1d38 887d 5c38 0000 0000
00000130: 0dca 0938 9d75 7537 538c 9b37 0000 0000
00000140: 5b73 21b8 0000 0000 0000 0000 17a9 2338
00000150: 6ec4 1538 8c54 6138 0000 0000 0000 0000
00000160: 3f07 0938 0000 0000 c5e4 59b8 12ed b137
00000170: 0000 0000 0000 0000 3e36 5438 a9a6 df37
00000180: a36c d337 d452 30b8 c4fb 5638 718f 6fb8
00000190: 5b51 07b8 ef64 50b8 0000 0000 4ca7 0938
000001a0: cf78 29b8 a68c 14b8 da0d 66b8 0000 0000
000001b0: 0000 0000 c876 0d38 a47d 62b8 75dd 6038
000001c0: 4323 a038 6887 1b38 47b6 0838 5a3d 8938
000001d0: 0000 0000 bfa6 40b8 a15b 2638 0000 0000
000001e0: a87e 0eb8 9a9d 6038 0000 0000 bcbe a2b8
000001f0: 0000 0000 e262 8638 7136 2838 92bf 1437
00000200: f95c 9dba e213 0cb9 0000 0000 5813 30ba
00000210: 0000 0000 0000 0000 0000 0000 5995 2f39
00000220: 740a e1ba 11c9 aaba 8755 1bb8 0000 0000
00000230: 578c 4739 c8ca 7ab9 1f5c 6eb9 0000 0000
00000240: 2a7d 3d38 0000 0000 0000 0000 9c26 0139
00000250: 95ac b2ba 3788 193a 0000 0000 0000 0000
00000260: 75b2 5aba 0000 0000 ea06 0938 62cf 4e38
00000270: 0000 0000 0000 0000 34bb 39ba acd8 b639
00000280: 55f0 8bb9 7145 6538 37a0 023a 58c2 5d34
00000290: b8bb 86ba 2189 a637 0000 0000 ea7a 0ab8
000002a0: 78ab 8433 9da7 6fba e6c8 1b36 0000 0000
000002b0: 0000 0000 7580 62ba 2efd e133 3e47 58ba
000002c0: 06f0 2dba c9ef 94ba 57a3 8539 8a0e 4eb9
000002d0: 0000 0000 a041 8cba 1a0a 2fb9 0000 0000
000002e0: f41d 88ba c854 9539 0000 0000 1956 f5ba
000002f0: 0000 0000 e12e 58ba fee4 f1b8 d487 6ab9
00000300: 0000 0000 0000 0000 0000 0000 0000 0000
00000310: 0000 0000 0000 0000 0000 0000 0000 0000
00000320: 0000 0000 0000 0000 0000 0000 0000 0000
00000330: 0000 0000 0000 0000 0000 0000 0000 0000
00000340: 0000 0000 0000 0000 0000 0000 0000 0000
00000350: 0000 0000 0000 0000 0000 0000 0000 0000
00000360: 0000 0000 0000 0000 0000 0000 0000 0000
00000370: 0000 0000 0000 0000 0000 0000 0000 0000
00000380: 0000 0000 0000 0000 0000 0000 0000 0000
00000390: 0000 0000 0000 0000 0000 0000 0000 0000
000003a0: 0000 0000 0000 0000 0000 0000 0000 0000
000003b0: 0000 0000 0000 0000 0000 0000 0000 0000
000003c0: 0000 0000 0000 0000 0000 0000 0000 0000
000003d0: 0000 0000 0000 0000 0000 0000 0000 0000
000003e0: 0000 0000 0000 0000 0000 0000 0000 0000
000003f0: 0000 0000 0000 0000 0000 0000 0000 0000

exp_avg_sq f4 [32, 64]
4.0234903e-07 0.0 0.0 8.298889e-08 0.0 0.0 0.0 4.4615426e-08
0.0 1.47787995e-08 3.4751616e-07 0.0 1.0642723e-07 0.0 0.0 0.0
3.5401516e-08 0.0 0.0 1.3290676e-07 2.6623546e-08 2.3837653e-07 0.0 0.0
7.917604e-08 0.0 1.1821472e-07 6.012107e-08 0.0 0.0 8.047532e-08 1.362896e-07
7.054676e-08 1.16680205e-07 2.1429068e-07 3.08325e-08 0.0 4.8384788e-08 0.0 1.7248779e-07
3.1038863e-09 0.0 1.42558445e-08 0.0 0.0 5.8178006e-08 2.5382583e-08 2.5337857e-07
3.532326e-07 1.7937833e-08 1.1335786e-07 2.9024577e-07 0.0 0.0 8.57126e-08 0.0
0.0 2.593716e-07 0.0 0.0 0.0 3.2403548e-07 2.0203898e-07 0.0
3.950268e-06 6.3419876e-08 0.0 1.3280728e-06 0.0 0.0 0.0 2.4695586e-07
2.3875343e-06 2.2752315e-06 1.925746e-06 0.0 6.3551624e-07 3.0193146e-07 4.5040537e-07 0.0
1.5175156e-07 0.0 0.0 6.1395235e-07 1.8888405e-06 1.0754893e-06 0.0 0.0
1.1143039e-06 0.0 3.9807978e-07 3.8848415e-07 0.0 0.0 1.4136032e-06 5.2250437e-07
4.7218387e-07 3.8256687e-07 8.787744e-07 7.325664e-08 9.4538615e-07 1.7688642e-07 0.0 9.3013637e-07
8.504497e-09 5.691784e-07 4.373479e-08 0.0 0.0 1.1961761e-06 6.5207054e-08 2.3351242e-06
2.705678e-06 1.9222261e-06 3.9658227e-07 1.6703364e-06 0.0 9.44362e-07 5.959261e-07 0.0
1.8745063e-06 1.452049e-06 0.0 2.83671e-06 0.0 2.4652636e-06 1.2475293e-06 1.1316879e-07
5.9677586e-05 1.8371986e-06 0.0 2.7739052e-05 0.0 0.0 0.0 1.1807317e-06
6.5570675e-05 5.957753e-05 8.731985e-06 0.0 2.8916782e-06 8.956096e-06 1.3249756e-05 0.0
5.8960734e-07 0.0 0.0 2.7815265e-06 4.8072245e-05 3.8769394e-06 0.0 0.0
2.211457e-05 0.0 8.146313e-07 2.0390985e-06 0.0 0.0 2.9458739e-05 1.4573008e-06
2.9942744e-06 7.8444384e-07 2.986568e-06 1.4619796e-07 2.6976992e-05 4.794447e-07 0.0 4.5814704e-06
2.5999729e-08 1.599205e-05 1.8533403e-07 0.0 0.0 2.3931854e-05 1.1140337e-07 3.2432687e-05
3.7145415e-05 5.066533e-05 1.1089081e-06 1.3012114e-05 0.0 2.6550333e-05 6.28502e-06 0.0
5.0039325e-05 6.8199574e-06 0.0 7.877195e-05 0.0 3.2362277e-05 6.411082e-06 3.1960765e-06
0.0 0.0 0.0 0.0 0.0 0.0 0.0 0.0
0.0 0.0 0.0 0.0 0.0 0.0 0.0 0.0
0.0 0.0 0.0 0.0 0.0 0.0 0.0 0.0
0.0 0.0 0.0 0.0 0.0 0.0 0.0 0.0
0.0 0.0 0.0 0.0 0.0 0.0 0.0 0.0
0.0 0.0 0.0 0.0 0.0 0.0 0.0 0.0
0.0 0.0 0.0 0.0 0.0 0.0 0.0 0.0
0.0 0.0 0.0 0.0 0.0 0.0 0.0 0.0
00000000: 6e02 d834 0000 0000 0000 0000 a037 b233
00000010: 0000 0000 0000 0000 0000 0000 2e9f 3f33
00000020: 0000 0000 d9e5 7d32 4292 ba34 0000 0000
00000030: fd8c e433 0000 0000 0000 0000 0000 0000
00000040: 610c 1833 0000 0000 0000 0000 22b5 0e34
00000050: ccb1 e432 71f4 7f34 0000 0000 0000 0000
00000060: 7d07 aa33 0000 0000 3bdd fd33 e81b 8133
00000070: 0000 0000 0000 0000 c6d1 ac33 0057 1234
00000080: 7e7f 9733 9f91 fa33 c617 6634 b16c 0433
00000090: 0000 0000 a3cf 4f33 0000 0000 1535 3934
000000a0: 254c 5531 0000 0000 dee9 7432 0000 0000
000000b0: 0000 0000 65df 7933 e408 da32 1608 8834
000000c0: eba3 bd34 b615 9a32 256f f333 13d3 9b34
000000d0: 0000 0000 0000 0000 0011 b833 0000 0000
000000e0: 0000 0000 c33f 8b34 0000 0000 0000 0000
000000f0: 0000 0000 19f7 ad34 0df0 5834 0000 0000
00000100: 8b8c 8436 7231 8833 0000 0000 3c40 b235
00000110: 0000 0000 0000 0000 0000 0000 5b95 8434
00000120: 8739 2036 2eb0 1836 103c 0136 0000 0000
00000130: 5898 2a35 2519 a234 3ecf f134 0000 0000
00000140: 27f1 2234 0000 0000 0000 0000 7cce 2435
00000150: 1184 fd35 8859 9035 0000 0000 0000 0000
00000160: 318f 9535 0000 0000 abb7 d534 db90 d034
00000170: 0000 0000 0000 0000 09bb bd35 3a42 0c35
00000180: 7580 fd34 9763 cd34 ebe4 6b35 4451 9d33
00000190: 71c6 7d35 2bee 3d34 0000 0000 7cae 7935
000001a0: 2c1b 1232 a4c9 1835 e9d6 3b33 0000 0000
000001b0: 0000 0000 4c8c a035 f507 8c33 21b5 1c36
000001c0: 3293 3536 98ff 0036 dae9 d434 5230 e035
000001d0: 0000 0000 1080 7d35 bbf7 1f35 0000 0000
000001e0: 8c97 fb35 06e4 c235 0000 0000 4f5e 3e36
000001f0: 0000 0000 e870 2536 c870 a735 3307 f333
00000200: 524e 7a38 aa95 f635 0000 0000 29b1 e837
00000210: 0000 0000 0000 0000 0000 0000 a279 9e35
00000220: fd82 8938 e3e2 7938 977f 1237 0000 0000
00000230: a70e 4236 2442 1637 454b 5e37 0000 0000
00000240: 8245 1e35 0000 0000 0000 0000 43aa 3a36
00000250: 2ea1 4938 a816 8236 0000 0000 0000 0000
00000260: ad82 b937 0000 0000 09ad 5a35 72d7 0836
00000270: 0000 0000 0000 0000 291e f737 7998 c335
00000280: 3ef1 4836 9292 5235 d96c 4836 97fa 1c34
00000290: a64c e237 30b3 0035 0000 0000 88ba 9936
000002a0: 0256 df32 aa26 8637 3b00 4734 0000 0000
000002b0: 0000 0000 44c1 c837 a63c ef33 5508 0838
000002c0: 96cc 1b38 7c81 5438 cbd5 9435 9b4e 5a37
000002d0: 0000 0000 68b8 de37 e9e3 d236 0000 0000
000002e0: 51e1 5138 fdd6 e436 0000 0000 5e32 a538
000002f0: 0000 0000 bbbc 0738 c61e d736 2d7c 5636
00000300: 0000 0000 0000 0000 0000 0000 0000 0000
00000310: 0000 0000 0000 0000 0000 0000 0000 0000
00000320: 0000 0000 0000 0000 0000 0000 0000 0000
00000330: 0000 0000 0000 0000 0000 0000 0000 0000
00000340: 0000 0000 0000 0000 0000 0000 0000 0000
00000350: 0000 0000 0000 0000 0000 0000 0000 0000
00000360: 0000 0000 0000 0000 0000 0000 0000 0000
00000370: 0000 0000 0000 0000 0000 0000 0000 0000
00000380: 0000 0000 0000 0000 0000 0000 0000 0000
00000390: 0000 0000 0000 0000 0000 0000 0000 0000
000003a0: 0000 0000 0000 0000 0000 0000 0000 0000
000003b0: 0000 0000 0000 0000 0000 0000 0000 0000
000003c0: 0000 0000 0000 0000 0000 0000 0000 0000
000003d0: 0000 0000 0000 0000 0000 0000 0000 0000
000003e0: 0000 0000 0000 0000 0000 0000 0000 0000
000003f0: 0000 0000 0000 0000 0000 0000 0000 0000

exp_avg f4 [32]
2.0088884e-22 -0.00019097302 -0.0034373319 0.0 -0.0019396282 0.00063130417 -0.0039589712 1.0923598e-26
-0.0008068983 0.0011727738 0.0 -0.0025016149 -0.0004548061 -0.0018054342 0.00024185382 1.4537083e-23
6.605883e-26 1.091096e-07 -0.0021410703 -0.001444751 0.002285112 0.0 0.001061436 -0.0034012347
-0.00043929435 3.6730587e-26 0.0011335466 2.0121098e-10 -0.0010733157 -0.0018912415 0.00078969874 -0.0008922575
00000000: 16dc 721b ee3f 48b9 dc44 61bb 0000 0000
00000010: 1f3b feba 1b7e 253a 42ba 81bb 395d 5814
00000020: 0786 53ba c2b7 993a 0000 0000 22f2 23bb
00000030: 0b73 eeb9 52a4 ecba 249a 7d39 1398 8c19
00000040: c28d a315 a34f ea33 3351 0cbb cd5d bdba
00000050: d1c1 153b 0000 0000 e21f 8b3a 40e7 5ebb
00000060: 1751 e6b9 8de1 3515 8393 943a db3b 5d2f
00000070: 80ae 8cba 89e3 f7ba c903 4f3a 63e6 69ba

exp_avg_sq f4 [32]
2.0373324e-07 2.8897505e-06 6.178096e-05 0.0 4.1759195e-05 1.0778704e-05 6.23491e-05 1.176217e-08
7.563308e-05 9.758676e-06 0.0 0.00013753012 6.280214e-05 1.8807823e-05 5.6427674e-05 1.7847758e-06
6.0301815e-08 1.6166789e-05 2.839257e-05 1.9086345e-05 8.5161446e-05 0.0 3.7857197e-05 3.3121305e-05
6.887224e-05 1.0213303e-08 4.2631214e-05 1.4146962e-05 3.8276943e-05 1.3877766e-05 1.9572683e-05 0.000121550234
00000000: c4c1 5a34 89ed 4136 6690 8138 0000 0000
00000010: 9826 2f38 2ed6 3437 6bc1 8238 9212 4a32
00000020: 339d 9e38 32b9 2337 0000 0000 f635 1039
00000030: a4b4 8338 7ec5 9d37 c1ac 6c38 6e8c ef35
00000040: 467f 8133 ea9d 8737 942c ee37 9d1b a037
00000050: b498 b238 0000 0000 dbc8 1e38 bbeb 0a38
00000060: 816f 9038 9576 2f32 ebce 3238 bd58 6d37
00000070: 8e8b 2038 8dd4 6837 0430 a437 c9e8 fe38

exp_avg f4 [4, 32]
3.1855732e-24 0.002114908 -0.003123023 0.0 -0.00028026637 0.0012139318 -0.00377816 2.9711986e-28
9.750367e-05 0.0004201767 0.0 0.0016700653 -0.00061033986 -0.0012014441 0.0002697166 -2.4806636e-24
-8.440008e-27 -1.4525625e-08 -0.0011596828 0.0018420519 0.0014976992 0.0 -0.00032844627 0.003770585
-0.0015148579 2.0147296e-27 -3.201974e-05 -7.1146583e-12 -3.6494628e-05 -0.00038997398 0.0040161954 0.0020069603
-1.5068789e-24 0.0023700192 0.0017279445 0.0 0.0050570765 0.0034007234 0.002435316 -7.1621406e-28
0.0041801427 0.00051260024 0.0 0.004568092 2.9243502e-05 0.0013219197 0.0012778158 1.274764e-24
-1.204326e-26 8.344148e-09 0.0022649046 0.0023319717 0.002707473 0.0 8.550653e-05 0.0036183822
0.0038218063 2.655894e-28 -2.9193505e-05 3.4582463e-12 -8.672759e-06 0.00073793717 0.004438868 0.0010003251
2.9645173e-25 -0.00032103737 -0.0013068542 0.0 -0.0017032244 -0.0005865368 -0.0013507465 2.7997277e-29
-0.0011081536 -4.275363e-06 0.0 -0.0006307306 -0.00056191615 -0.0007057777 -0.0003208602 1.1045666e-24
1.2419241e-26 -6.543825e-09 -0.00085180753 -7.4488606e-05 -0.00038559386 0.0 5.6069613e-05 0.00022872728
-0.0015348197 -2.1573543e-27 -0.00021075648 -9.935117e-13 -0.00014925265 -0.00041797705 -0.00025505663 6.7488894e-05
-1.9751484e-24 -0.00416389 0.0027019333 0.0 -0.003073584 -0.004028119 0.00269359 3.9109715e-28
-0.0031694924 -0.0009285014 0.0 -0.0056074285 0.0011430128 0.0005853026 -0.0012266722 1.01333343e-25
8.0640335e-27 1.27253035e-08 -0.0002534145 -0.004099535 -0.0038195783 0.0 0.00018687008 -0.0076176976
-0.0007721287 -1.2296625e-28 0.00027196982 4.649922e-12 0.00019442012 7.001384e-05 -0.008200008 -0.0030747743
00000000: c778 7618 459a 0a3b a2ab 4cbb 0000 0000
00000010: b7f0 92b9 cb1c 9f3a 029b 77bb 7452 bc11
00000020: e27a cc38 294b dc39 0000 0000 18e6 da3a
00000030: 37ff 1fba c679 9dba c068 8d39 9bee 3f98
00000040: ed2b 2794 608c 79b2 7f00 98ba 0171 f13a
00000050: 724e c43a 0000 0000 5033 acb9 eb1b 773b
00000060: 328e c6ba 929f 1f13 ef4c 06b8 2553 faac
00000070: cf11 19b8 6c75 ccb9 4a9a 833b 3587 033b
00000080: a02d e997 5352 1b3b 327c e23a 0000 0000
00000090: d5b5 a53b acde 5e3b d399 1f3b 30fa 6292
000000a0: 94f9 883b 0560 063a 0000 0000 efaf 953b
000000b0: f14f f537 4444 ad3a 627c a73a 9b42 c517
000000c0: 958a 6e94 f359 0f32 cb6e 143b fed3 183b
000000d0: dc6f 313b 0000 0000 f851 b338 6122 6d3b
000000e0: 4577 7a3b 5856 a811 93e4 f4b7 3a5a 732c
000000f0: 3781 11b7 2072 413a ec73 913b 571d 833a
00000100: a77e b716 e850 a8b9 c04a abba 0000 0000
00000110: ba3e dfba d1c1 19ba 880b b1ba 8bf6 0d10
00000120: 773f 91ba 1775 8fb6 0000 0000 9d57 25ba
00000130: 8e4d 13ba f103 39ba 2139 a8b9 64ec aa17
00000140: 09fd 7514 18d8 e0b1 d64b 5fba c436 9cb8
00000150: 8829 cab9 0000 0000 4a2c 6b38 83d6 6f39
00000160: 012c c9ba 58ec 2a93 83fe 5cb9 08d3 8bab
00000170: b480 1cb9 ee23 dbb9 1fb9 85b9 d388 8d38
00000180: d8d1 1898 3e71 88bb eb12 313b 0000 0000
00000190: 2f6e 49bb 50fe 83bb f186 303b 24e3 f711
000001a0: 42b7 4fbb ad66 73ba 0000 0000 85be b7bb
000001b0: 25d1 953a fe6e 193a 4ac8 a0ba a3e3 fa15
000001c0: 82b9 1f14 7a9e 5a32 b8dc 84b9 6455 86bb
000001d0: e451 7abb 0000 0000 8ef2 4339 e19d f9bb
000001e0: ae68 4aba d4e0 1b91 2c97 8e39 c69a a32c
000001f0: 41dd 4b39 65d4 9238 5459 06bc 2782 49bb

exp_avg_sq f4 [4, 32]
2.1104551e-10 0.00011210464 0.0001201444 0.0 0.00050633406 0.00031116477 0.00014009373 8.702024e-12
0.00034710375 3.5731482e-05 0.0 0.00063745584 0.00010385568 2.6851752e-05 9.135609e-05 1.1829279e-07
2.6348408e-09 3.459593e-05 0.00013251904 0.00010104929 0.00019754135 0.0 0.00022595427 0.00061356806
0.0005419664 3.4917524e-11 4.554531e-05 1.7469445e-06 1.9321786e-05 2.4717296e-05 0.0007505946 4.021461e-05
4.676442e-10 2.1767304e-05 3.990904e-05 0.0 0.00020336646 0.00011250332 4.4809163e-05 5.0564084e-11
7.818776e-05 2.6510854e-05 0.0 6.874931e-05 0.0001073126 4.8757515e-06 1.1287445e-05 3.7300783e-08
2.0707876e-08 3.9390703e-05 3.0621068e-05 8.935167e-06 0.00013230894 0.0 4.765962e-05 6.784779e-05
0.000353427 3.5205036e-10 5.9133028e-05 2.7011106e-06 1.9555107e-05 8.052406e-06 0.00016195173 4.3974114e-06
5.2857163e-10 9.140486e-06 3.1155065e-05 0.0 0.000101034086 3.3481374e-05 3.6283014e-05 7.726591e-14
3.8809707e-05 1.6857626e-05 0.0 2.9008832e-05 3.883955e-05 9.459326e-06 4.2859933e-06 6.800409e-08
8.311997e-09 1.3074604e-05 2.2432367e-05 4.4978865e-06 4.6215635e-05 0.0 2.6592328e-05 3.0398372e-05
0.00014674773 3.9709847e-10 1.8141745e-05 1.334626e-06 8.172012e-06 6.954643e-06 6.3251944e-05 1.6618956e-06
1.0364324e-09 0.00012257567 9.834276e-05 0.0 0.0005061113 0.00031838263 0.00012464194 1.5077372e-11
0.00035329937 2.7708824e-05 0.0 0.00063895277 0.00010087643 2.220382e-05 9.31723e-05 1.352955e-08
1.9248683e-09 3.857447e-05 0.00012214443 0.00010419836 0.00021637109 0.0 0.00018855679 0.00060444925
0.00055479334 7.2183414e-12 4.9810664e-05 2.3444597e-06 1.9199146e-05 2.1301106e-05 0.0007451002 4.1863335e-05
00000000: 080c 682f b819 eb38 09f6 fb38 0000 0000
00000010: 81bb 043a d423 a339 20e6 1239 6f16 192d
00000020: 7afb b539 63de 1538 0000 0000 f01a 273a
00000030: 18cd d938 b33f e137 6d96 bf38 2608 fe33
00000040: 9c10 3531 191b 1138 cff4 0a39 6dea d338
00000050: 1a23 4f39 0000 0000 23ee 6c39 dbd7 203a
00000060: c012 0e3a a391 192e e707 3f38 8e78 ea35
00000070: 3815 a237 fd57 cf37 8dc3 443a 1cac 2838
00000080: 898b 0030 ee98 b637 0164 2738 0000 0000
00000090: c53e 5539 c3ef eb38 79f1 3b38 1962 5e2e
000000a0: bcf8 a338 a063 de37 0000 0000 812d 9038
000000b0: 030d e138 639a a336 355f 3d37 a534 2033
000000c0: 1ae1 b132 7237 2538 1f6f 0038 40e8 1537
000000d0: 69bc 0a39 0000 0000 21e6 4738 8149 8e38
000000e0: 2b4c b939 af8a c12f 9b05 7838 ba44 3536
000000f0: 460a a437 d218 0737 96d1 2939 7a8d 9336
00000100: ec4a 1130 175a 1937 7fac 0238 0000 0000
00000110: 43e2 d338 5a6e 0c38 972e 1838 c4fc ad29
00000120: 9bc7 2238 7a69 8d37 0000 0000 fe57 f337
00000130: a6e7 2238 7fb3 1e37 67d0 8f36 a509 9233
00000140: 8dcc 0e32 ff5a 5b37 242d bc37 8dec 9636
00000150: a9d7 4138 0000 0000 9712 df37 0200 ff37
00000160: 4be0 1939 a44e da2f 1a2f 9837 6621 b335
00000170: 861a 0937 ee5b e936 21a6 8438 4c0e df35
00000180: 3972 8e30 a887 0039 5e3d ce38 0000 0000
00000190: 8eac 043a 98ec a639 51b2 0239 399f 842d
000001a0: 0a3b b939 3f70 e837 0000 0000 657f 273a
000001b0: 9f8d d338 5742 ba37 7f65 c338 976f 6832
000001c0: a446 0431 06cb 2138 e513 0039 1285 da38
000001d0: ace1 6239 0000 0000 54b7 4539 e773 1e3a
000001e0: 8d6f 113a 0af9 fd2c cbeb 5038 8355 1d36
000001f0: da0d a137 c7af b237 d452 433a 6a96 2f38

exp_avg f4 [4]
-0.0042137364 0.0056290375 -0.0015622604 0.0001469597
00000000: 6213 8abb ca73 b83b c3c4 ccba 3219 1a39

exp_avg_sq f4 [4]
0.00037634073 0.00022360374 8.598745e-05 0.000439019
00000000: 994f c539 2c77 6a39 2954 b438 222c e639
