logs/comparison_reinforce_coordinates/reinforce_episode_1000.pt (torch, 57757 bytes, 18 tensors)

network.0.weight f4 [64, 2]
00000000: f509 913e 34ed a23e 00fb 913d 6369 03be
00000010: 4547 19be f778 3abe 759f 383e 6f2b df3d
00000020: cc1e 7abe ab60 91be 5ac8 aabd 0e81 933c
00000030: c1bc 93bc 9f0a 6bbd 9f17 5cbd 7fec 483e
00000040: f082 a83e c111 6fbe c5cb 933e 0913 7f3b
00000050: f00a b23b 7100 b43e 2adb 2cbd 5b8c 5dbd
00000060: 968f 7ebd 6f73 673e 9329 ba3d 7f42 8dbe
00000070: 9720 043e e6bb 98be 4ae6 fcbd c16d fa3b
00000080: d7cf 6dbe 1700 413e f069 8cbd 6022 1ebe
00000090: c4d2 dfbd a315 40bc 4eb4 213c d6ba 4a3e
000000a0: eb23 913e 536f b03d ff50 2dbe cc8d b73e
000000b0: 6216 1fbd 4094 19bd cbc6 84be 0aca 56be
000000c0: af88 3f3e cb27 aa3d 7329 7dbd b888 6bbe
000000d0: c74e 91be 7cdb 583e c639 70bc 4166 453e
000000e0: 1046 dabd c1e4 94be 96d4 bfbd 60d3 c6bd
000000f0: 9e3c 393e 4ee6 183e bc78 d7bd 07c1 763e
00000100: 48f6 e43c 9476 203e bc38 83be d49f 653e
00000110: f80c f6bd e7d1 a73e f63c 81be 6773 223e
00000120: d57d 753e 215c 86be 8da8 84be f3a6 3d3e
00000130: 8892 a1bb 39fa a5bd 3c38 6ebc 3059 843e
00000140: a510 95be 8353 033e 09b7 433e 2590 36be
00000150: dfe4 76be be9d 223e 29db a2bd 07fb 35be
00000160: 4d38 96be 8d6c 03be 4295 233e f6ef 233e
00000170: b57b 76be 279c 143e 7516 1f3e fc23 743e
00000180: 740a 563e f698 7d3e bb96 903e 2523 77bc
00000190: 181b 74bd 86ea 353e 886f b93d cda5 9a3e
000001a0: b659 a7bd 11b3 a6bd 8208 4c3e a19a 0cbe
000001b0: 9edf 6d3d b658 1b3e 02e6 c5bd 438c 7ebe
000001c0: 2d15 6d3e 0c76 35be 1605 89bd 2f0c bf3e
000001d0: e7f9 4fbe 5226 b0bd a558 b93e 5e87 97be
000001e0: 83a7 e6bd d8c7 2fbe b9e6 423e d4a5 6e3e
000001f0: b59f d5bb 98d4 993e 6928 e73d b218 64be
0.2832791 0.31821597 0.071279526 -0.1283317 -0.14968593 -0.18210207 0.18029578 0.10896956
-0.2442581 -0.28394064 -0.08338995 0.018005874 -0.01803434 -0.057383176 -0.053733464 0.19621466
0.32912397 -0.23346616 0.288664 0.0038921258 0.0054334328 0.35156587 -0.0422012 -0.05408893
-0.062148653 0.22602628 0.09089961 -0.27589795 0.12903057 -0.29830855 -0.12348612 0.007642478
-0.23223816 0.1884769 -0.068561435 -0.154428 -0.10928872 -0.011723909 0.009869648 0.19797835
0.28347716 0.086149834 -0.16925429 0.3585037 -0.038839705 -0.037494898 -0.25932917 -0.2097551
0.18704484 0.08308371 -0.061807107 -0.23001373 -0.28380415 0.21177477 -0.014662212 0.19277288
-0.106578946 -0.29080775 -0.093667194 -0.09708285 0.1808953 0.14931604 -0.10521075 0.24097072
0.027949467 0.15670234 -0.25629222 0.22424251 -0.12014192 0.3277733 -0.25241822 0.15864335
0.23973782 -0.26242164 -0.25909844 0.18520717 -0.004930798 -0.08104367 -0.0145397745 0.25849295
-0.2911426 0.12824826 0.19112791 -0.17828424 -0.24110745 0.15880486 -0.07951958 -0.1777154
-0.2933983 -0.12834378 0.15974906 0.16009507 -0.24070628 0.14512692 0.1553591 0.23841852
0.20902425 0.24765381 0.28239998 -0.015084063 -0.05959615 0.17765245 0.09054476 0.3020462
-0.08171408 -0.08139623 0.1992512 -0.13730861 0.058074586 0.1517056 -0.09663011 -0.24858193
0.23152609 -0.17720813 -0.06690423 0.37313983 -0.20310174 -0.08601059 0.36200443 -0.29595464
-0.11262419 -0.17166078 0.19033326 0.23305446 -0.0065192827 0.3004501 0.112870045 -0.22275046

network.0.bias f4 [64]
00000000: 0f66 973d 0ccd 2d3d 0000 0000 74af d6bc
00000010: 0000 0000 0000 0000 0000 0000 af04 903d
00000020: d22a 953d dd13 e23c e63b cd3c 0000 0000
00000030: a89f 8e3d c967 dfbc 9bac cfbc 0000 0000
00000040: 2ada e237 0000 0000 0000 0000 a948 89bc
00000050: d7df 9b3d 39d2 4d3d 0000 0000 0000 0000
00000060: 39ce d83c 0000 0000 71ed 94bd cf4a bf3d
00000070: 0000 0000 0000 0000 c822 27bd 7322 e13c
00000080: 61f6 e53c 4293 99bd 6715 493b d1de 54bd
00000090: f3fe a43d 442f e3bc 0000 0000 683e 583d
000000a0: 24d1 2abc bb1b 783d db3f 283d 0000 0000
000000b0: 0000 0000 5c65 a33d 9831 28bd 8484 d83c
000000c0: 531d 3dbd 9c1e aaba b969 aebc 63c7 2ebd
000000d0: 0000 0000 85fc 773d 2560 3dbd 0000 0000
000000e0: 598c 8cbd b183 e73d 0000 0000 4651 c03d
000000f0: 0000 0000 89cf 113c 2dfd 273d dec9 8c3d
0.07392513 0.042431876 0.0 -0.02620671 0.0 0.0 0.0 0.07032143
0.07283558 0.027597362 0.025052976 0.0 0.06964046 -0.027271168 -0.02535086 0.0
2.704289e-05 0.0 0.0 -0.01675828 0.076110534 0.050249312 0.0 0.0
0.026465522 0.0 -0.07271851 0.093404405 0.0 0.0 -0.040804654 0.027482247
0.028071584 -0.0749879 0.0030682923 -0.051970307 0.0805644 -0.027732499 0.0 0.05279389
-0.01042584 0.06057332 0.041076522 0.0 0.0 0.07978317 -0.04106292 0.026430376
-0.046170544 -0.0012979093 -0.021290647 -0.04267062 0.0 0.060543556 -0.04623427 0.0
-0.06862707 0.11304415 0.0 0.09390502 0.0 0.008899578 0.04101293 0.068744406

network.2.weight f4 [32, 64]
00000000: 7b2a b8bc a078 6f3c a0ef 94bd 355c 41be
00000010: 6004 0ebc 607b fdbc 780f 6fbd 1ce7 723e
00000020: 2069 f03c 281a 32be df4c 3e3e f0d4 1dbd
00000030: ee1e e23d 60fd aabd 92bd 193e 7e1a 213e
00000040: ee0d 873e 72b0 21be b4c2 863d 5852 993c
00000050: 93ec ad3d 4fb1 793d c0c4 c53b 3239 033e
00000060: e019 19be bec2 33be ae0c 7a3a 0469 aebc
00000070: ac07 4dbe 8e95 163e 115a 09be 6b35 5bbd
00000080: 3d2b 20bd c12e 283e 1ffb e93d 33c9 5f3b
00000090: 3444 4d3e 9651 853e 3840 143e 1cc9 ff3d
000000a0: 9eb5 d63d 0e55 32be a21a 903e 3000 b4bd
000000b0: a05b aa3c bf5a d03d 0ac7 183e 2b00 71be
000000c0: 8cfe d53d f0b0 4bbe 5d17 ddbd a4ae 4fbe
000000d0: d829 a03d f4d2 12be 1af7 5bbe 7c7a 14be
000000e0: 0036 faba a4d2 ea3d 700a 0d3d 2054 58be
000000f0: 74f8 34be b6bf 56bd 74ea 393d a46d 0e3e
00000100: 5cd2 d0bd 7e15 5a3e 904e 933c 88b0 083e
00000110: ec57 d23d 909d b43c 1064 75be 9d7d 663e
00000120: bbf3 2dbe 58d8 4e3e 18a2 803e f854 e8bd
00000130: 9e03 c43b 9952 a2bc 238f 7dbd 308c 5ebd
00000140: 8cb0 0ebe e05a 233c 266b 423e 1372 f4bd
00000150: e166 8c3e 970e 5bbe e0ce 79bd 2c68 e1bd
00000160: c297 49be eae7 613e 6189 b1bd 95fd f93d
00000170: 785c 7ebe 00f2 2fbd 4830 863e 51a4 023e
00000180: 31dd babd 259b 21be ad26 c53d c3d0 7d3e
00000190: 8724 833e 00bf efbd 860f 6a3e 1321 ea3d
000001a0: beab 2abd ffe7 40bd 0181 9b3e 2036 183d
000001b0: d0f9 c3bd a1b3 333e e24d cebd ae64 873e
000001c0: 9a35 40bd 861b 95bd 99e7 053d 4e87 1bbd
000001d0: d8e7 1d3d 8c3f 5cbe c9ad e7bd 6ada 74be
000001e0: fd49 373d 2f07 dd3d 2c1b 1b3e 3f45 5ebe
000001f0: c2d2 7ebe 4ab8 203e 9c05 e2bd 84c3 1c3e
00000200: b040 3d3e 92d7 cb3c 069a 57be 89c7 c3bd
00000210: 6057 233d 3002 afbd 9872 1e3d a5df 82be
00000220: be7d b73d 15f6 7a3e 87db 08bd 88de 483e
00000230: a4e9 273d 77e9 e63d 259d 593e 409f c83c
00000240: c02e 563d 9807 30bd 503b 58be 2c7b 83bd
00000250: dc3a cfbc 2f9a e33c 8a76 1a3e 82fd 3ebe
00000260: f7e8 6a3c e665 0f3e e1a4 ab3d fd9a 92bd
00000270: 764d 3dbe c0b6 a9bc 033e 34bd 4c46 52be
00000280: 2c1d 1c3e f7f1 55bd d154 25be 9ac6 c5bd
00000290: f89c 7f3e c1a1 3f3e 68df 25bd 7e1b f8bd
000002a0: fb31 81bd c1f5 0a3e b07b 873c d015 b8bc
000002b0: 90d2 cf3d 0797 353e bd29 8cbe a282 37be
000002c0: fc2c 383c d5a7 d93d 45ac 63bc 208d 20be
000002d0: 0054 163e ab9b 913e cd33 2bbe 60c4 033e
000002e0: 7941 c83c c339 8abd 367e 61be 7b2d 9b3d
000002f0: a032 0abd b077 033e 40c0 a0bd 7555 a43b
00000300: a827 d3bd b080 1ebd 2457 87bd 3cf2 23be
00000310: a09a fabd 6877 373d 8032 0e3e be46 3cbe
00000320: ca36 233e aa27 57be 46f5 69be a061 0dbc
00000330: 8414 3a3e 6e1c 303e f4ef 62be 5c8f d03d
00000340: 361e 74be 1af0 7d3e 7ce3 b0bd 3e8f 11be
00000350: d877 4f3d 706c 63be 4c5c cd3d 84ed 88bd
00000360: b472 b3bd 7221 7ebe 5857 f63d 1e05 7e3e
00000370: a238 64be 48fc b8bd e645 633e 78ee 4fbd
00000380: e271 743e 92ba 5a3e c0db 553e 12cc 03be
00000390: ec73 02be 981b 903d 7403 3ebe c44a 9f3d
000003a0: 1ce5 76be 6c4a ad3d 3e4f 3dbe 2c1e 7bbe
000003b0: 3819 1c3d 8c6f bdbd d41a 323e e015 8bbd
000003c0: 0c94 aabd 20bc a33c c08b 1abd a2e3 0b3e
000003d0: 10f2 253d 703c 4b3d 3638 033e 28f4 7d3d
000003e0: 983b 2c3d a01e 93bd a656 5cbe 84c7 11be
000003f0: c09f 43bc 28c2 d83d d25d 7abe 46af 6b3e
-0.022481194 0.014616162 -0.07272267 -0.1888283 -0.008668035 -0.030942619 -0.05836436 0.23720974
0.029347003 -0.1739279 0.18584011 -0.03853315 0.110410556 -0.08349109 0.15013722 0.15732762
0.26377815 -0.15789965 0.065801054 0.018716022 0.084923886 0.06096011 0.0060354173 0.12814787
-0.14951277 -0.17554757 0.00095386326 -0.02129031 -0.20022458 0.14705488 -0.13413264 -0.05351774
-0.039103735 0.16424085 0.11424851 0.0034147024 0.20045549 0.26038808 0.14477623 0.124895304
0.104838595 -0.17415258 0.2814532 -0.08789098 0.020795643 0.101735584 0.14919677 -0.2353522
0.104489416 -0.19891715 -0.10795472 -0.20281464 0.07820481 -0.14338285 -0.2148098 -0.14499849
-0.001908958 0.11465958 0.034433782 -0.21125841 -0.17672902 -0.052428924 0.045389608 0.13909012
-0.10196373 0.21297261 0.017981797 0.13348591 0.10270676 0.022047788 -0.23963952 0.22508855
-0.16987507 0.20199716 0.25123668 -0.113443315 0.0059818765 -0.019814776 -0.061904084 -0.054332912
-0.13934535 0.009970397 0.18986186 -0.119358204 0.2742224 -0.21392284 -0.060988307 -0.11006197
-0.19686797 0.22061124 -0.08668781 0.1220657 -0.24839962 -0.0429554 0.2620871 0.12757994
-0.0912422 -0.15781839 0.096265174 0.24786668 0.25613806 -0.11706352 0.22857484 0.1143209
-0.041667692 -0.04709625 0.3037186 0.037160993 -0.09569132 0.17548992 -0.10073449 0.26444
-0.04692612 -0.0728064 0.03269157 -0.037970833 0.03855118 -0.21508616 -0.11312444 -0.23911443
0.044748295 0.10792386 0.15147084 -0.21706103 -0.24885085 0.156953 -0.11036226 0.15308958
0.18481708 0.024883065 -0.21054849 -0.09559543 0.03987825 -0.08545339 0.038683504 -0.25561252
0.0895953 0.24507935 -0.033412483 0.19616139 0.0409943 0.11274999 0.21251352 0.024489999
0.052290678 -0.042975992 -0.21116376 -0.064199775 -0.025296621 0.027783481 0.15084282 -0.18651393
0.01433777 0.14003715 0.083810575 -0.07158468 -0.1848658 -0.020717025 -0.04400445 -0.20534629
0.15245503 -0.05223271 -0.16145636 -0.09657021 0.24962223 0.18714048 -0.04049626 -0.12114619
-0.06308361 0.1357031 0.016538471 -0.022471339 0.101475835 0.17733394 -0.27375594 -0.17920926
0.011241194 0.106277145 -0.013896053 -0.15678835 0.14680481 0.28439078 -0.16718979 0.1286788
0.024445282 -0.067492984 -0.22020802 0.07577034 -0.033739686 0.12838626 -0.07849169 0.00501507
-0.10310298 -0.038696945 -0.06608418 -0.16010374 -0.12236524 0.04479161 0.13886452 -0.18386361
0.15938869 -0.21011224 -0.2284747 -0.008629233 0.18171889 0.17198345 -0.22161847 0.10183594
-0.2383965 0.24798623 -0.08637139 -0.14214799 0.0506514 -0.22209334 0.1002737 -0.066859275
-0.08762112 -0.24817446 0.12028378 0.2480664 -0.22287229 -0.09032494 0.22194633 -0.05076453
0.23871568 0.21360233 0.20884609 -0.12870815 -0.12739533 0.07036513 -0.18556005 0.07777932
-0.24110836 0.084614605 -0.1848726 -0.24523228 0.038109988 -0.092497915 0.17393047 -0.06791282
-0.08329019 0.019987166 -0.037730932 0.13661054 0.040514052 0.049618185 0.12814412 0.062000424
0.04204902 -0.07183576 -0.21517429 -0.14236265 -0.011939943 0.10583907 -0.24449852 0.2301608

network.2.bias f4 [32]
00000000: 9e44 e3bc 7a81 4e3c ada1 933d 0000 0000
00000010: b7d4 9b3d b38f 7c3c 8fe4 893d 04fa a7bb
00000020: 9919 303d 4b0b 5dbd 0000 0000 114c 913d
00000030: 3363 1abd d76a 163d 57ce f63b 84a4 a4bc
00000040: 3318 1dbc 13c6 00bd f3d1 243d 9e8a 0b3d
00000050: d0d4 b9bc 0000 0000 1a0d a5bd bd77 7a3d
00000060: 4a23 8bbc 3cc6 2cbc c9be 53bd 1414 38bc
00000070: 683d 26bc 320e 4f3d 46b9 9f3c 04b2 e23c
-0.02774268 0.012604112 0.072085716 0.0 0.076089315 0.01541512 0.06733047 -0.0051262397
0.04299316 -0.053965848 0.0 0.07094587 -0.03769226 0.036722984 0.007531922 -0.020097978
-0.009588289 -0.0314389 0.040239286 0.034067743 -0.022684485 0.0 -0.080591395 0.061149348
-0.0169846 -0.01054531 -0.05169562 -0.011235256 -0.010146476 0.050550647 0.019497525 0.027672775

network.4.weight f4 [4, 32]
00000000: fe99 b53e 82e3 993e 015f d43e 14ba a6bd
00000010: b6c0 ad3e c1eb f03c f6b5 8f3e 3f0a 50bd
00000020: 0df4 e83e 0107 bdbd bef3 6b3e 8fe6 083e
00000030: fea8 35be ad27 b73e 5bc6 7f3e ff70 98be
00000040: 1127 c3be 9d9b 98be 302a b23e b6ba e8bd
00000050: 96b0 0cbe a3f9 cd3e d41a 963e 9948 b23e
00000060: 141d c03e e1e2 a63e b171 2fbe 82db 003d
00000070: b907 9fbe a33c d13c 531d 823e b47f 85be
00000080: 066f 5b3e 705b 443e 2f2f 84be 1a18 bdbe
00000090: e1db 31be 3ddb 333d edaa dfbe 2ea4 c1be
000000a0: b7f1 9a3d 817c b4bc 3fff 7fbe 6d5e fabe
000000b0: ef4f 8f3e d9f0 c2bd 7ead a73d 4698 ce3d
000000c0: c90d 0abe 9fff ebbc 14b8 c5bd 3c6c ccbe
000000d0: 0bf9 833e a003 a3be 17e2 993d d532 bfbe
000000e0: 8244 523e 0e72 29be 52e4 af3e 0e17 8f3e
000000f0: 96a1 26be 12a8 a9be 5308 9a3e 05dc 4d3e
00000100: e690 9e3e eece 073e 79a5 33be 972a 99be
00000110: 6bcc 27be f477 66be c4f0 52be bc6e a9bd
00000120: 3d16 99be c9db dfbd 52cf 0bbe 8cb3 b8be
00000130: a434 ce3e 976b 313d 9107 d8be 085a fd3c
00000140: 96de b0bd 9612 d1be f68b 823e 799e 98bd
00000150: d8b9 96bd b2c6 cd3e ee3c 343d 9829 893e
00000160: f8fc d53d 6ee9 a5be d053 633e 3cb4 28be
00000170: 9ea5 9f3e 47c3 a63d a10f b33b 0e6b afbe
00000180: 6a68 a1be 7f60 733e de24 25be 0e18 893e
00000190: c910 bc3d a1a3 e13d 0780 5cbe 16f7 d2be
000001a0: eae7 0ab8 7343 77be 98ce 78bd 206f ae3e
000001b0: 2d55 63be 90b0 8e3d f075 f4bd 9c49 23bd
000001c0: d1a7 953e 1e56 c7bd e2a4 9c3d 241c 9e3d
000001d0: 1f09 a03e 3abc 6dbe ec2a 15be f2eb b83e
000001e0: 1c82 f5bd 2791 a4bd 0409 463d 768b ab3d
000001f0: 13f4 d5be a9d2 86bd d336 df3e a57f b43e
0.3546905 0.30056387 0.41478732 -0.0814096 0.3393609 0.029409291 0.28068513 -0.05079102
0.45498696 -0.092298515 0.23042199 0.13369201 -0.17740247 0.35772458 0.2497801 -0.2977371
-0.38115743 -0.29806224 0.34797812 -0.11363737 -0.13739237 0.4022952 0.29317343 0.34821013
0.37522185 0.3259497 -0.17133214 0.03145934 -0.3106058 0.02554161 0.25412998 -0.26073992
0.21429071 0.19175506 -0.25817248 -0.3693245 -0.17369033 0.043910254 -0.43685094 -0.37820572
0.07565635 -0.022032024 -0.24999712 -0.48900166 0.27990672 -0.09518594 0.08187388 0.100876376
-0.13481821 -0.028808413 -0.09654251 -0.39926326 0.25775942 -0.31838703 0.07513826 -0.3734347
0.20533946 -0.16547415 0.34353882 0.27947277 -0.16272578 -0.3313604 0.30084476 0.20103462
0.30969924 0.13262531 -0.17543592 -0.29915306 -0.16386573 -0.22506696 -0.20599657 -0.08273074
-0.2989978 -0.109305926 -0.13653305 -0.36074483 0.40274537 0.043315496 -0.42193273 0.03092672
-0.08636205 -0.40834492 0.25497407 -0.07452101 -0.07359666 0.40190655 0.04400342 0.26789546
0.104486406 -0.32404655 0.2219994 -0.16475004 0.31181043 0.08142715 0.0054645096 -0.34261364
-0.31524974 0.23767279 -0.16127345 0.26776165 0.09182889 0.11017538 -0.21533214 -0.41204137
-3.311775e-05 -0.24146824 -0.0607439 0.34069157 -0.2220046 0.069672704 -0.11936557 -0.03986512
0.29229596 -0.097332224 0.076486364 0.07720211 0.3125696 -0.23216334 -0.14567155 0.36117512
-0.11987707 -0.08035498 0.04834844 0.083762094 -0.41787776 -0.06583149 0.43596515 0.35253635

network.4.bias f4 [4]
00000000: bac1 433d 04c8 6fbd 28b9 18bd 139a 193d
0.047792174 -0.05854036 -0.037285954 0.037500452

exp_avg f4 [64, 2]
00000000: 71e4 07ba 63f3 85b9 c77f c7b9 e36b bab8
00000010: 0000 0000 0000 0000 5523 fe38 6458 2039
00000020: 0000 0000 0000 0000 0000 0000 0000 0000
00000030: 0000 0000 0000 0000 67a9 c939 6c17 3cb8
00000040: 69e7 55ba 059f 3bb9 c6ce 9fb9 1e66 c337
00000050: 5248 a239 2e55 ecb8 0000 0000 0000 0000
00000060: f5c9 cc39 7b2d 2c39 bdbe 8cb9 7ba4 8bb8
00000070: b008 1cb9 a677 e8b7 0000 0000 0000 0000
00000080: fa36 aeb8 f3ef a4b9 0000 0000 0000 0000
00000090: 0000 0000 0000 0000 03cc 083a cfd8 8539
000000a0: fb8b 13ba 0e78 a0b9 567e c0b8 7fae 52b9
000000b0: 0000 0000 0000 0000 0000 0000 0000 0000
000000c0: 94b1 52ba 36ed c4b9 0000 0000 0000 0000
000000d0: 5fc1 ccb7 78c1 fab8 6dc0 8b38 155f 4bb7
000000e0: 0000 0000 0000 0000 0000 0000 0000 0000
000000f0: 3f9d 3ab8 f731 dcb7 bd37 e5b8 28d0 61b7
00000100: bc86 73b9 2c62 b5b8 7c3c 9ab8 485d 8db9
00000110: 5658 7eb8 b28a 19b9 1305 38b8 9216 5fb9
00000120: b3a5 97ba f85b 66b9 922b 96b8 a2cf beb9
00000130: 0000 0000 0000 0000 7a59 163a 85d8 8c39
00000140: 5c30 68b8 c60b a5b9 c6d4 d0ba 4605 beb9
00000150: 334b 0038 cd42 3e38 0000 0000 0000 0000
00000160: 0000 0000 0000 0000 a8cd 2339 a1e5 e338
00000170: 6fdd a9b8 a13c d7b9 fe2f 8839 e75f 2239
00000180: dbb3 4fb9 59de 32b9 b207 45b9 255c fe38
00000190: b149 493a 40cc d239 0922 66b7 c7b6 13b9
000001a0: 0000 0000 0000 0000 4603 0dba 00c6 27b9
000001b0: 9e41 d038 7dde efb8 0000 0000 0000 0000
000001c0: ebd9 cd37 591a ea35 6848 2e3a 6764 8a39
000001d0: 0000 0000 0000 0000 b48e 66ba 7b18 52b9
000001e0: 0000 0000 0000 0000 ee2a 2cb9 5b6d afb7
000001f0: 52c3 e939 509b d038 7ec4 8aba 83e4 8eb9
-0.0005183882 -0.00025549074 -0.0003805144 -8.8892666e-05 0.0 0.0 0.00012118245 0.00015291717
0.0 0.0 0.0 0.0 0.0 0.0 0.00038463922 -4.4844506e-05
-0.0008159788 -0.00017892949 -0.00030480901 2.3293363e-05 0.0003095293 -0.00011269223 0.0 0.0
0.00039060382 0.00016420141 -0.00026844992 -6.6586734e-05 -0.00014880556 -2.771227e-05 0.0 0.0
-8.307207e-05 -0.00031459294 0.0 0.0 0.0 0.0 0.00052183884 0.00025529272
-0.00056284637 -0.00030607026 -9.178805e-05 -0.00020092166 0.0 0.0 0.0 0.0
-0.00080373255 -0.0003756077 0.0 0.0 -2.440874e-05 -0.00011956965 6.6638786e-05 -1.2121881e-05
0.0 0.0 0.0 0.0 -4.4492303e-05 -2.624931e-05 -0.00010929953 -1.345951e-05
-0.00023224478 -8.6490385e-05 -7.354558e-05 -0.00026963116 -6.064059e-05 -0.00014642885 -4.3873744e-05 -0.00021275345
-0.0011569768 -0.0002196877 -7.160673e-05 -0.00036394323 0.0 0.0 0.0005735379 0.000268642
-5.535815e-05 -0.00031480024 -0.0015932552 -0.00036243553 3.0587613e-05 4.5361743e-05 0.0 0.0
0.0 0.0 0.00015621504 0.00010866975 -8.099793e-05 -0.00041053168 0.00025975698 0.0001548525
-0.0001980806 -0.00017058234 -0.00018790251 0.00012128827 0.00076785224 0.000402065 -1.3716993e-05 -0.00014087102
0.0 0.0 -0.0005379211 -0.00016000122 9.930435e-05 -0.0001143785 0.0 0.0
2.453938e-05 1.7442027e-06 0.00066483626 0.00026396217 0.0 0.0 -0.0008795068 -0.0002003628
0.0 0.0 -0.00016419191 -2.0912548e-05 0.00044586748 9.947142e-05 -0.0010587124 -0.00027254605

exp_avg_sq f4 [64, 2]
00000000: 3a3b 8539 8842 4138 7e17 c738 13bf b335
00000010: 0000 0000 0000 0000 7e82 0c39 48df 1738
00000020: 0000 0000 0000 0000 0000 0000 0000 0000
00000030: 0000 0000 0000 0000 0ab3 cd37 469d ee37
00000040: aadd 3439 e44f bd37 c174 0a39 f8ee dc37
00000050: d25b a039 84a2 8638 0000 0000 0000 0000
00000060: ff4e 3a38 5332 9438 8b30 a838 7386 9f35
00000070: cabb 4b39 5e72 c436 0000 0000 0000 0000
00000080: 3430 6a37 9802 ba38 0000 0000 0000 0000
00000090: 0000 0000 0000 0000 996c f138 ef21 8838
000000a0: a416 2e39 df2a 6f38 b414 e437 d81b c738
000000b0: 0000 0000 0000 0000 0000 0000 0000 0000
000000c0: 8b9a 7f39 79d3 1939 0000 0000 0000 0000
000000d0: 1692 1c37 32ba 3c38 5af8 5b39 4a5a 9c38
000000e0: 0000 0000 0000 0000 0000 0000 0000 0000
000000f0: a75e b838 6d52 5c37 2404 7c37 eb9d ca37
00000100: 2440 6f38 6ecf 9237 d5ee 8c37 5fbd a338
00000110: 07a9 c136 0eeb bd37 efeb 0337 4f8b 9a38
00000120: a020 053a 1bda c937 c68d 1138 05f5 6439
00000130: 0000 0000 0000 0000 2fe5 b838 b985 ca38
00000140: f6a5 0837 aa50 de38 27eb 483a 4978 8138
00000150: c317 9437 bf8b 2339 0000 0000 0000 0000
00000160: 0000 0000 0000 0000 39d1 6b39 33a5 0a39
00000170: 802e 0838 68e5 a239 df3e c338 0595 6637
00000180: 1610 4d38 c006 3138 ead9 5c38 ee36 1338
00000190: 08d0 9938 22ea a938 5444 d738 6403 d838
000001a0: 0000 0000 0000 0000 8096 a639 a7aa af37
000001b0: e4cb 8738 895b e838 0000 0000 0000 0000
000001c0: dfcb f738 533f 2937 42eb f638 a153 2239
000001d0: 0000 0000 0000 0000 d56f 8439 9bf2 cb37
000001e0: 0000 0000 0000 0000 409a d238 7980 9537
000001f0: e57f 0739 facd a737 7462 3c39 0754 9c36
0.00025411864 4.6076748e-05 9.493435e-05 1.3392149e-06 0.0 0.0 0.00013400053 3.6209152e-05
0.0 0.0 0.0 0.0 0.0 0.0 2.4521276e-05 2.8445047e-05
0.00017248714 2.2567758e-05 0.000132042 2.6337322e-05 0.0003058599 6.419889e-05 0.0 0.0
4.4419427e-05 7.0665636e-05 8.019906e-05 1.1885553e-06 0.00019429546 5.8545693e-06 0.0 0.0
1.395871e-05 8.869654e-05 0.0 0.0 0.0 0.0 0.000115120034 6.491306e-05
0.00016602367 5.7021967e-05 2.7189359e-05 9.494246e-05 0.0 0.0 0.0 0.0
0.00024376267 0.00014669997 0.0 0.0 9.332338e-06 4.49961e-05 0.00020977986 7.455477e-05
0.0 0.0 0.0 0.0 8.791434e-05 1.3132213e-05 1.5021335e-05 2.4153813e-05
5.7041776e-05 1.7501148e-05 1.6800515e-05 7.807719e-05 5.7715256e-06 2.2640012e-05 7.863141e-06 7.3692405e-05
0.0005078409 2.406263e-05 3.470273e-05 0.00021835051 0.0 0.0 8.8164925e-05 9.6570184e-05
8.1448725e-06 0.0001060081 0.0007664435 6.173604e-05 1.765404e-05 0.00015596951 0.0 0.0
0.0 0.0 0.00022489288 0.00013222247 3.2468233e-05 0.0003106997 9.310035e-05 1.3743765e-05
4.889079e-05 4.2206375e-05 5.2655036e-05 3.509869e-05 7.334357e-05 8.1021586e-05 0.00010264726 0.00010300314
0.0 0.0 0.00031774119 2.0941092e-05 6.475279e-05 0.00011079672 0.0 0.0
0.00011815852 1.0087929e-05 0.00011774014 0.00015480678 0.0 0.0 0.00025260323 2.4312458e-05
0.0 0.0 0.000100423116 1.7822009e-05 0.00012922248 2.0003867e-05 0.00017965754 4.6589444e-06

exp_avg f4 [64]
00000000: 2b93 1cb9 26af c9b8 0000 0000 965e 3d38
00000010: 0000 0000 0000 0000 0000 0000 9e44 9a38
00000020: 56d3 54b9 7a3b 89b8 6519 5d38 0000 0000
00000030: f173 d838 aa77 8cb8 6521 24b8 0000 0000
00000040: cece 7db8 0000 0000 0000 0000 3298 1939
00000050: ea8d 30b9 7317 56b8 0000 0000 0000 0000
00000060: e1e5 6ab9 0000 0000 86e8 96b7 85de 3337
00000070: 0000 0000 0000 0000 a47f 88b7 8671 cfb7
00000080: e3b4 84b8 f1bb 51b8 612c 12b8 d079 09b8
00000090: b64b 90b9 377e 77b8 0000 0000 cf08 2939
000000a0: 5c30 68b8 9f0d d2b9 5997 2f37 0000 0000
000000b0: 0000 0000 cefa 3238 4142 84b8 2d77 a338
000000c0: 23dd 84b8 656a dab7 53a2 6c39 4358 e5b7
000000d0: 0000 0000 63af 0fb9 0ff8 ad36 0000 0000
000000e0: 0ac9 3336 7ce0 3439 0000 0000 298b 66b9
000000f0: 0000 0000 cf83 18b8 2cc7 e538 8a64 8bb9
-0.00014932144 -9.617051e-05 0.0 4.51492e-05 0.0 0.0 0.0 7.356073e-05
-0.00020296624 -6.5437474e-05 5.2714156e-05 0.0 0.000103212784 -6.6980094e-05 -3.9131748e-05 0.0
-6.0512502e-05 0.0 0.0 0.00014647914 -0.00016837535 -5.1043415e-05 0.0 0.0
-0.00022401616 0.0 -1.798967e-05 1.0721041e-05 0.0 0.0 -1.62719e-05 -2.4729186e-05
-6.327943e-05 -5.0004517e-05 -3.4850444e-05 -3.2776792e-05 -0.0002752223 -5.9006936e-05 0.0 0.00016120377
-5.535815e-05 -0.0004006447 1.0466051e-05 0.0 0.0 4.2672087e-05 -6.306591e-05 7.794644e-05
-6.3354404e-05 -2.6037169e-05 0.00022567184 -2.7340027e-05 0.0 -0.0001370288 5.1846796e-06 0.0
2.6790099e-06 0.00017249765 0.0 -0.0002198635 0.0 -3.636238e-05 0.000109566696 -0.00026587053

exp_avg_sq f4 [64]
00000000: 1554 e337 0d8e 1537 0000 0000 4f83 4937
00000010: 0000 0000 0000 0000 0000 0000 91bf 9d36
00000020: 5bc6 9437 0101 6037 d5d4 fe37 0000 0000
00000030: 561c 1737 dd3f d136 95bb 8637 0000 0000
00000040: 58d6 0237 0000 0000 0000 0000 5599 6837
00000050: 485a a537 740a 0d37 0000 0000 0000 0000
00000060: c7a2 0138 0000 0000 3ab8 8d36 ca2a fa37
00000070: 0000 0000 0000 0000 f76a f736 4e9b 7c36
00000080: d6ba c036 b00b e336 470c 0e36 3e40 ca36
00000090: 4631 6338 0569 9b37 0000 0000 2fe2 7537
000000a0: f187 0837 5e5c 9e38 eff9 4237 0000 0000
000000b0: 0000 0000 57fc 0038 d84c d537 a26e 2737
000000c0: caf6 0137 4136 f036 ee77 4737 1ce5 8637
000000d0: 0000 0000 c7a4 0738 6164 5c37 0000 0000
000000e0: 75fb 1337 2a99 ce37 0000 0000 d78d db37
000000f0: 0000 0000 3cf2 1237 75ba 7237 e52c 7237
2.7099662e-05 8.914166e-06 0.0 1.2011106e-05 0.0 0.0 0.0 4.701266e-06
1.7735341e-05 1.3351674e-05 3.0378267e-05 0.0 9.006899e-06 6.23612e-06 1.6061394e-05 0.0
7.79851e-06 0.0 0.0 1.3863978e-05 1.9711573e-05 8.406689e-06 0.0 0.0
3.0907595e-05 0.0 4.2235743e-06 2.9822248e-05 0.0 0.0 7.373626e-06 3.7641325e-06
5.7437965e-06 6.766488e-06 2.1166795e-06 6.027548e-06 5.4166907e-05 1.8526343e-05 0.0 1.46558e-05
8.137883e-06 7.551232e-05 1.1621493e-05 0.0 0.0 3.0752588e-05 2.5427362e-05 9.979734e-06
7.746459e-06 7.1588734e-06 1.1889248e-05 1.6080732e-05 0.0 3.233997e-05 1.3136393e-05 0.0
8.82043e-06 2.4628436e-05 0.0 2.6172884e-05 0.0 8.758678e-06 1.4467737e-05 1.4434777e-05

exp_avg f4 [32, 64]
00000000: 8709 34b9 0000 0000 0000 0000 b0a4 88b8
00000010: 0000 0000 0000 0000 0000 0000 f681 c2b8
00000020: 0000 0000 3b2f e2b7 c105 2cb9 0000 0000
00000030: f15f e2b8 0000 0000 0000 0000 0000 0000
00000040: 9d64 88b8 0000 0000 0000 0000 56bd c6b8
00000050: 5570 86b8 635d 21b9 0000 0000 0000 0000
00000060: 63b2 58b8 0000 0000 4acd 8db8 42fd c7b8
00000070: 0000 0000 0000 0000 32a5 a6b8 e2b0 dab8
00000080: 020d 9cb8 1831 9bb8 6184 11b9 b6ef 42b8
00000090: 0000 0000 0c73 7cb8 0000 0000 5455 04b9
000000a0: a4f3 05b8 0000 0000 1b78 72b8 0000 0000
000000b0: 0000 0000 6286 c5b8 81f4 30b8 ed35 07b9
000000c0: faa1 02b9 0d21 8db7 8ceb aab8 7b07 15b9
000000d0: 0000 0000 0000 0000 687f 93b8 0000 0000
000000e0: 0000 0000 93e7 3bb9 0000 0000 0000 0000
000000f0: 0000 0000 e4db 00b9 5457 17b9 0000 0000
00000100: 5fc0 6db8 20aa 25b6 0000 0000 0cfb e3b7
00000110: 0000 0000 0000 0000 0000 0000 1454 79b7
00000120: b45d aab7 a067 f9b7 3cea 03b8 0000 0000
00000130: c32c 89b7 b53f 8335 c249 20b6 0000 0000
00000140: 3b73 bbb6 0000 0000 0000 0000 55b6 9eb7
00000150: 5915 1ab8 0755 9eb7 0000 0000 0000 0000
00000160: e23f d2b7 0000 0000 01d0 b7b6 a151 98b7
00000170: 0000 0000 0000 0000 555e f5b7 64ee 56b7
00000180: 1851 86b7 ffd1 d3b6 fc7b 8eb7 92ea 75b6
00000190: 41c1 4db7 56d7 a2b6 0000 0000 feac cab7
000001a0: 503e 22b6 d2ef 2bb7 5fca a1b6 0000 0000
000001b0: 0000 0000 ac82 09b8 14e3 5db6 61c1 1fb8
000001c0: 0c3e 25b8 fc2a e1b7 c0fe 2ab7 e698 0ab8
000001d0: 0000 0000 328e 58b7 8b47 90b7 0000 0000
000001e0: 82ba 4ab7 4ab4 fcb7 0000 0000 1d6d b5b7
000001f0: 0000 0000 71ab 22b8 1d0c e7b7 320a 4fb6
00000200: b39a b6b9 0098 30b8 0000 0000 375e 4db9
00000210: 0000 0000 0000 0000 0000 0000 5571 6bb7
00000220: f41b 94b9 9e0a 96b9 37ab a9b8 0000 0000
00000230: f5a6 fab6 b194 87b4 bcc5 49b8 0000 0000
00000240: 66dc 0a21 0000 0000 0000 0000 78b3 67b8
00000250: fc9b 9eb9 e081 4f37 0000 0000 0000 0000
00000260: 8290 4bb9 0000 0000 c637 ff1e 3ae2 39b8
00000270: 0000 0000 0000 0000 0db3 4db9 a81e 1a37
00000280: 4cf3 6bb8 d87f 1d21 cc68 8237 5485 5d0e
00000290: 2cf3 49b9 5396 ed1e 0000 0000 fee6 7eb8
000002a0: 0787 840d fafd 21b9 af15 e920 0000 0000
000002b0: 0000 0000 3ff9 5ab9 bdd4 4f17 913b 5eb9
000002c0: ffe8 76b9 0cfd 8db9 08ad 6937 7b78 0eb9
000002d0: 0000 0000 2822 39b9 bfe1 a1b8 0000 0000
000002e0: d53b 3cb9 8860 30b8 0000 0000 2720 a2b9
000002f0: 0000 0000 b368 71b9 97f9 90b8 9451 6bb8
00000300: 0000 0000 0000 0000 0000 0000 0000 0000
00000310: 0000 0000 0000 0000 0000 0000 0000 0000
00000320: 0000 0000 0000 0000 0000 0000 0000 0000
00000330: 0000 0000 0000 0000 0000 0000 0000 0000
00000340: 0000 0000 0000 0000 0000 0000 0000 0000
00000350: 0000 0000 0000 0000 0000 0000 0000 0000
00000360: 0000 0000 0000 0000 0000 0000 0000 0000
00000370: 0000 0000 0000 0000 0000 0000 0000 0000
00000380: 0000 0000 0000 0000 0000 0000 0000 0000
00000390: 0000 0000 0000 0000 0000 0000 0000 0000
000003a0: 0000 0000 0000 0000 0000 0000 0000 0000
000003b0: 0000 0000 0000 0000 0000 0000 0000 0000
000003c0: 0000 0000 0000 0000 0000 0000 0000 0000
000003d0: 0000 0000 0000 0000 0000 0000 0000 0000
000003e0: 0000 0000 0000 0000 0000 0000 0000 0000
000003f0: 0000 0000 0000 0000 0000 0000 0000 0000
-0.00017169687 0.0 0.0 -6.515661e-05 0.0 0.0 0.0 -9.274848e-05
0.0 -2.6963293e-05 -0.00016405342 0.0 -0.0001079439 0.0 0.0 0.0
-6.503726e-05 0.0 0.0 -9.476642e-05 -6.4105414e-05 -0.00015388946 0.0 0.0
-5.166455e-05 0.0 -6.761642e-05 -9.5362324e-05 0.0 0.0 -7.946267e-05 -0.00010427997
-7.4410826e-05 -7.4001204e-05 -0.00013877593 -4.6476453e-05 0.0 -6.0188628e-05 0.0 -0.00012620288
-3.193658e-05 0.0 -5.7809153e-05 0.0 0.0 -9.418723e-05 -4.2189382e-05 -0.00012894692
-0.00012458107 -1.68239e-05 -8.150106e-05 -0.00014212534 0.0 0.0 -7.0332375e-05 0.0
0.0 -0.00017919978 0.0 0.0 0.0 -0.00012288947 -0.00014433014 0.0
-5.6684363e-05 -2.4685942e-06 0.0 -2.7177412e-05 0.0 0.0 0.0 -1.48611325e-05
-2.0309213e-05 -2.9731367e-05 -3.145098e-05 0.0 -1.6352516e-05 9.778802e-07 -2.388479e-06 0.0
-5.586449e-06 0.0 0.0 -1.8919973e-05 -3.6736343e-05 -1.8874662e-05 0.0 0.0
-2.5063699e-05 0.0 -5.47804e-06 -1.8157823e-05 0.0 0.0 -2.9250203e-05 -1.2810899e-05
-1.6011807e-05 -6.312737e-06 -1.6985454e-05 -3.6644383e-06 -1.2263948e-05 -4.8530446e-06 0.0 -2.4160832e-05
-2.4176152e-06 -1.0248232e-05 -4.821733e-06 0.0 0.0 -3.2785043e-05 -3.3063743e-06 -3.8088652e-05
-3.939685e-05 -2.6842106e-05 -1.0192103e-05 -3.304416e-05 0.0 -1.2907711e-05 -1.7199452e-05 0.0
-1.2083563e-05 -3.0124695e-05 0.0 -2.1627691e-05 0.0 -3.8783477e-05 -2.7542987e-05 -3.0851338e-06
-0.00034829005 -4.210323e-05 0.0 -0.00019585421 0.0 0.0 0.0 -1.4033479e-05
-0.00028249586 -0.0002861814 -8.090439e-05 0.0 -7.470017e-06 -2.5253897e-07 -4.810629e-05 0.0
4.7047914e-19 0.0 0.0 -5.5241835e-05 -0.00030252326 1.23684e-05 0.0 0.0
-0.00019413422 0.0 2.7022243e-20 -4.4318127e-05 0.0 0.0 -0.00019617025 9.186253e-06
-5.6254954e-05 5.336287e-19 1.5546007e-05 2.7304548e-30 -0.00019259442 2.5155524e-20 0.0 -6.0773447e-05
8.167635e-31 -0.0001544877 3.9486084e-19 0.0 0.0 -0.00020882952 6.715382e-25 -0.0002119376
-0.00023547186 -0.0002708215 1.3928169e-05 -0.00013587058 0.0 -0.00017655699 -7.719127e-05 0.0
-0.00017951366 -4.205157e-05 0.0 -0.00030923003 0.0 -0.00023022555 -6.912945e-05 -5.610434e-05
0.0 0.0 0.0 0.0 0.0 0.0 0.0 0.0
0.0 0.0 0.0 0.0 0.0 0.0 0.0 0.0
0.0 0.0 0.0 0.0 0.0 0.0 0.0 0.0
0.0 0.0 0.0 0.0 0.0 0.0 0.0 0.0
0.0 0.0 0.0 0.0 0.0 0.0 0.0 0.0
0.0 0.0 0.0 0.0 0.0 0.0 0.0 0.0
0.0 0.0 0.0 0.0 0.0 0.0 0.0 0.0
0.0 0.0 0.0 0.0 0.0 0.0 0.0 0.0

exp_avg_sq f4 [32, 64]
00000000: 5913 4937 0000 0000 0000 0000 7246 ea35
00000010: 0000 0000 0000 0000 0000 0000 11df 3f36
00000020: 0000 0000 7b85 3935 e9aa 1737 0000 0000
00000030: 596b 7b36 0000 0000 0000 0000 0000 0000
00000040: 6ac6 8735 0000 0000 0000 0000 1a45 3f36
00000050: 7e8c 2036 b9e8 ec36 0000 0000 0000 0000
00000060: 68eb bb35 0000 0000 8783 8635 bd74 5236
00000070: 0000 0000 0000 0000 8b80 2736 129c 4a36
00000080: 638b 0636 9e48 aa35 1ada c236 7dd5 eb34
00000090: 0000 0000 8d95 5835 0000 0000 fff4 b036
000000a0: 5824 4934 0000 0000 327b 4735 0000 0000
000000b0: 0000 0000 dca5 7436 9764 c134 7349 d036
000000c0: 7fa0 ca36 5c73 c434 cf8a fa35 6d8a e636
000000d0: 0000 0000 0000 0000 38d2 e335 0000 0000
000000e0: 0000 0000 3566 2f37 0000 0000 0000 0000
000000f0: 0000 0000 145e c836 f27c e636 0000 0000
00000100: f7af 7036 25b3 5833 0000 0000 79b5 8d35
00000110: 0000 0000 0000 0000 0000 0000 76fc a334
00000120: 5c8e ed35 a68d e935 7e1b ee35 0000 0000
00000130: 9b4f 2735 eb05 5b34 d5e9 a634 0000 0000
00000140: b99d 2334 0000 0000 0000 0000 7d65 1635
00000150: 17a6 da35 4a8e 8e35 0000 0000 0000 0000
00000160: 0f5d 7335 0000 0000 f088 a234 3e1a e634
00000170: 0000 0000 0000 0000 5d4d 9b35 1ed5 0035
00000180: 07db f034 a184 a534 db53 6935 f328 8733
00000190: acf5 4435 476e 2534 0000 0000 9d78 7535
000001a0: 9fee 7d32 3309 f134 f288 9b33 0000 0000
000001b0: 0000 0000 646d 9535 e283 6c33 a762 0536
000001c0: 3467 1536 dd20 c335 0aee bc34 5a49 cb35
000001d0: 0000 0000 231d 3b35 b217 0535 0000 0000
000001e0: 2b67 aa35 3311 cd35 0000 0000 1299 0d36
000001f0: 0000 0000 7c3f 0d36 e3b7 a335 d99f cc33
00000200: f23e 9238 65c7 f835 0000 0000 a9fd dc37
00000210: 0000 0000 0000 0000 0000 0000 97b3 d135
00000220: 80a1 8138 c579 6f38 fb63 2f37 0000 0000
00000230: 3094 4d36 4269 e136 0c1b 2e37 0000 0000
00000240: d4db c634 0000 0000 0000 0000 c888 5436
00000250: 441e 5e38 0098 6236 0000 0000 0000 0000
00000260: 8b32 c537 0000 0000 3e9a 0535 87c8 3936
00000270: 0000 0000 0000 0000 4abf ea37 44ad 9d35
00000280: b65c 8336 e5d2 0235 f6d7 3836 ef60 be33
00000290: b0d0 e337 99ba 9d34 0000 0000 95fb b836
000002a0: 576d 8732 a828 8c37 043e fe33 0000 0000
000002b0: 0000 0000 4f3a df37 2c12 9133 6641 0b38
000002c0: 547d 1e38 f720 4a38 4307 8735 99ae 7437
000002d0: 0000 0000 4d57 cf37 6311 c836 0000 0000
000002e0: 4e06 2538 d58f 0837 0000 0000 61e2 9b38
000002f0: 0000 0000 629a 1438 45a2 0237 8e67 7236
00000300: 0000 0000 0000 0000 0000 0000 0000 0000
00000310: 0000 0000 0000 0000 0000 0000 0000 0000
00000320: 0000 0000 0000 0000 0000 0000 0000 0000
00000330: 0000 0000 0000 0000 0000 0000 0000 0000
00000340: 0000 0000 0000 0000 0000 0000 0000 0000
00000350: 0000 0000 0000 0000 0000 0000 0000 0000
00000360: 0000 0000 0000 0000 0000 0000 0000 0000
00000370: 0000 0000 0000 0000 0000 0000 0000 0000
00000380: 0000 0000 0000 0000 0000 0000 0000 0000
00000390: 0000 0000 0000 0000 0000 0000 0000 0000
000003a0: 0000 0000 0000 0000 0000 0000 0000 0000
000003b0: 0000 0000 0000 0000 0000 0000 0000 0000
000003c0: 0000 0000 0000 0000 0000 0000 0000 0000
000003d0: 0000 0000 0000 0000 0000 0000 0000 0000
000003e0: 0000 0000 0000 0000 0000 0000 0000 0000
000003f0: 0000 0000 0000 0000 0000 0000 0000 0000
1.1985038e-05 0.0 0.0 1.7454861e-06 0.0 0.0 0.0 2.859106e-06
0.0 6.911211e-07 9.0400945e-06 0.0 3.74644e-06 0.0 0.0 0.0
1.011603e-06 0.0 0.0 2.850144e-06 2.3923635e-06 7.0604406e-06 0.0 0.0
1.4001098e-06 0.0 1.0022057e-06 3.136039e-06 0.0 0.0 2.495976e-06 3.019119e-06
2.004869e-06 1.2687121e-06 5.807041e-06 4.3927494e-07 0.0 8.0683895e-07 0.0 5.27373e-06
1.8732806e-07 0.0 7.431255e-07 0.0 0.0 3.6455376e-06 3.602224e-07 6.2074337e-06
6.0387533e-06 3.659178e-07 1.866685e-06 6.870649e-06 0.0 0.0 1.6974e-06 0.0
0.0 1.045461e-05 0.0 0.0 0.0 5.9714166e-06 6.8690797e-06 0.0
3.5865212e-06 5.045435e-08 0.0 1.0558134e-06 0.0 0.0 0.0 3.0544805e-07
1.7699308e-06 1.7401078e-06 1.7740383e-06 0.0 6.232819e-07 2.0398117e-07 3.1090045e-07 0.0
1.5237937e-07 0.0 0.0 5.602704e-07 1.6290604e-06 1.0621236e-06 0.0 0.0
9.065997e-07 0.0 3.0274487e-07 4.2859932e-07 0.0 0.0 1.1570916e-06 4.799384e-07
4.4862847e-07 3.0830145e-07 8.692129e-07 6.293876e-08 7.337319e-07 1.5406941e-07 0.0 9.144513e-07
1.4780794e-08 4.489644e-07 7.24266e-08 0.0 0.0 1.1133202e-06 5.506798e-08 1.9875968e-06
2.2262802e-06 1.4538197e-06 3.5190925e-07 1.5146027e-06 0.0 6.970533e-07 4.958084e-07 0.0
1.2696013e-06 1.5278696e-06 0.0 2.1099736e-06 0.0 2.104759e-06 1.2197964e-06 9.5285664e-08
6.973547e-05 1.8535471e-06 0.0 2.6344163e-05 0.0 0.0 0.0 1.5623981e-06
6.181281e-05 5.7095447e-05 1.0454091e-05 0.0 3.0633637e-06 6.717776e-06 1.03775055e-05 0.0
3.704032e-07 0.0 0.0 3.167008e-06 5.295711e-05 3.37651e-06 0.0 0.0
2.3507766e-05 0.0 4.9770813e-07 2.768387e-06 0.0 0.0 2.798405e-05 1.1747838e-06
3.914897e-06 4.8735666e-07 2.7543842e-06 8.8651966e-08 2.7157686e-05 2.9379297e-07 0.0 5.5129153e-06
1.576579e-08 1.6708233e-05 1.1839077e-07 0.0 0.0 2.6610824e-05 6.755394e-08 3.320109e-05
3.7786856e-05 4.8191254e-05 1.0060397e-06 1.4584185e-05 0.0 2.4716976e-05 5.9624886e-06 0.0
3.9344937e-05 8.13972e-06 0.0 7.433142e-05 0.0 3.542973e-05 7.786385e-06 3.6121087e-06
0.0 0.0 0.0 0.0 0.0 0.0 0.0 0.0
0.0 0.0 0.0 0.0 0.0 0.0 0.0 0.0
0.0 0.0 0.0 0.0 0.0 0.0 0.0 0.0
0.0 0.0 0.0 0.0 0.0 0.0 0.0 0.0
0.0 0.0 0.0 0.0 0.0 0.0 0.0 0.0
0.0 0.0 0.0 0.0 0.0 0.0 0.0 0.0
0.0 0.0 0.0 0.0 0.0 0.0 0.0 0.0
0.0 0.0 0.0 0.0 0.0 0.0 0.0 0.0

exp_avg f4 [32]
00000000: 8edc a7b8 8bed 0fb8 45cc 72b9 0000 0000
00000010: c3ff 29b9 b18a 7d38 2325 77b9 0400 0000
00000020: 744d a4b9 ace0 1537 0000 0000 e710 1e39
00000030: 8cb9 3bb8 e2b2 41b9 e9e6 86b9 0400 0000
00000040: 0400 0000 350f ea0d f3e9 33b9 2841 1639
00000050: bc78 a739 0000 0000 d304 b4b8 a6fc ca37
00000060: 5ac9 afb9 0400 0000 9c09 9db7 07ff 5c09
00000070: 6dd2 9db8 7121 2bb8 9628 0739 7a95 e439
-8.004262e-05 -3.4315086e-05 -0.00023155015 0.0 -0.00016212375 6.0449067e-05 -0.0002356959 6e-45
-0.00031338225 8.933403e-06 0.0 0.00015074351 -4.475708e-05 -0.00018472553 -0.00025730513 6e-45
6e-45 1.4425024e-30 -0.00017157923 0.00014329387 0.00031942676 0.0 -8.5839674e-05 2.4197925e-05
-0.0003352862 6e-45 -1.8720333e-05 2.660145e-33 -7.525538e-05 -4.080072e-05 0.00012889723 0.00043598918

exp_avg_sq f4 [32]
00000000: 077d e836 395d 2636 ec1f 8f38 0000 0000
00000010: f6b3 2238 7ee5 1737 a9ea 8538 1111 f531
00000020: 342e ab38 4d9a f436 0000 0000 51e2 d338
00000030: ec12 3a38 a19b da37 a313 6e38 1142 9135
00000040: b90c 1d33 b278 2437 4ae3 0138 a29e 9f37
00000050: 0fa4 c338 0000 0000 d83e 3538 76e3 f937
00000060: 7ef3 a938 c2cb d431 9a50 0438 44ec 0f37
00000070: aa52 e237 68c4 3e37 4235 9f37 8571 0b39
6.928694e-06 2.479019e-06 6.824717e-05 0.0 3.879141e-05 9.053734e-06 6.385643e-05 7.1323787e-09
8.1625214e-05 7.2897296e-06 0.0 0.00010103419 4.4363478e-05 2.6060095e-05 5.676191e-05 1.082257e-06
3.6565982e-08 9.803263e-06 3.0967676e-05 1.9028146e-05 9.328883e-05 0.0 4.321229e-05 2.9789033e-05
8.103902e-05 6.1931766e-09 3.154632e-05 8.578474e-06 2.6979793e-05 1.1370612e-05 1.8979077e-05 0.00013298362

exp_avg f4 [4, 32]
00000000: 56e1 b6b8 4659 26ba 7e35 04ba 0000 0000
00000010: 0ff6 c4ba c89e 3aba 7623 38ba 0400 0000
00000020: c70f 9cba 9fe0 5e36 0000 0000 36b5 a4ba
00000030: 6378 a9b9 73fa 21ba 9289 e0b9 0400 0080
00000040: 0400 0080 d147 798c 3dfe 6dba e762 14ba
00000050: 1d6d f4b9 0000 0000 3bb8 42b9 f4d8 b7ba
00000060: e62d 99ba 0400 0000 ef2c bb36 4b0e fa86
00000070: 8599 3cb9 af14 16ba b0cc 75ba 22dc 84b9
00000080: 8448 b434 d66c a2b5 33da 8bb7 0000 0000
00000090: 3254 96b7 b534 bc35 185f a2b7 0400 0080
000000a0: 6b1f 2db7 9e57 57b3 0000 0000 435f 1736
000000b0: bcdc 2db7 da54 18b7 dc40 19b6 0400 0000
000000c0: 0400 0080 8a32 0f0c 39d5 3bb7 b039 6436
000000d0: f290 8135 0000 0000 103c db35 245a 9836
000000e0: df92 a3b7 0400 0000 4e00 a3b5 5817 7306
000000f0: 42bb e1b6 96a9 ddb6 9889 eb36 10a5 2036
00000100: 94ae 3c35 6935 f437 7f93 3fb8 0000 0000
00000110: 7f68 de36 5268 2c38 7401 3db8 0400 0000
00000120: b1c4 8f37 b960 d8b3 0000 0000 c466 8838
00000130: cf98 f0b7 5069 b8b6 bcf5 c636 0400 0000
00000140: 0400 0000 519a e08b a6a5 04b6 dbb3 2a38
00000150: 6807 0238 0000 0000 b508 4736 005c ad38
00000160: b308 9eb7 0400 0080 b895 74b6 95ac 8b85
00000170: d98a 9db7 3656 98b4 ae08 a038 6eeb dd37
00000180: b3b3 b438 cc08 1f3a 8b8d 143a 0000 0000
00000190: f370 c63a 2c7a 2f3a 8806 493a 0400 0000
000001a0: f32a 9b3a 40c0 54b6 0000 0000 1ae3 9b3a
000001b0: d9f0 bd39 9ccc 253a 3aa0 de39 0400 0000
000001c0: 0400 0000 6762 5a0c 3772 713a 6ed3 083a
000001d0: a8aa e339 0000 0000 a0e5 3d39 dc6a ac3a
000001e0: 5634 9e3a 0400 0080 f80f 41b5 d56d a306
000001f0: be58 5739 0de3 173a 8bf4 5f3a 4078 6b39
-8.7204084e-05 -0.00063457 -0.00050433713 0.0 -0.0015026944 -0.0007118997 -0.0007024327 6e-45
-0.0011906557 3.3211325e-06 0.0 -0.0012566212 -0.00032323887 -0.00061789824 -0.00042827107 -6e-45
-6e-45 -1.9203874e-31 -0.0009078717 -0.00056604896 -0.00046620602 0.0 -0.00018569913 -0.0014026449
-0.0011686652 6e-45 5.5782652e-06 -9.406055e-35 -0.00017986268 -0.0005725128 -0.0009376509 -0.00025341014
3.3580375e-07 -1.2101616e-06 -1.6671698e-05 0.0 -1.79206e-05 1.4022431e-06 -1.9356186e-05 -6e-45
-1.0318919e-05 -5.0138276e-08 0.0 2.2556203e-06 -1.0362997e-05 -9.079662e-06 -2.283653e-06 6e-45
-6e-45 1.1031528e-31 -1.1195713e-05 3.4008226e-06 9.653434e-07 0.0 1.6334252e-06 4.5404468e-06
-1.9499506e-05 6e-45 -1.2144535e-06 4.572037e-35 -6.727322e-06 -6.6060556e-06 7.019564e-06 2.3937937e-06
7.02895e-07 2.9111938e-05 -4.5675315e-05 0.0 6.6282805e-06 4.110515e-05 -4.5062465e-05 6e-45
1.713852e-05 -1.00758776e-07 0.0 6.504127e-05 -2.8681387e-05 -5.4958873e-06 5.929467e-06 6e-45
6e-45 -8.651385e-32 -1.9765953e-06 4.0698662e-05 3.1001313e-05 0.0 2.965838e-06 8.266419e-05
-1.8839119e-05 -6e-45 -3.644598e-06 -1.3134894e-35 -1.8780514e-05 -2.8374933e-07 7.631011e-05 2.6454883e-05
8.6165404e-05 0.00060666795 0.00056668435 0.0 0.0015139863 0.0006693925 0.0007668515 6e-45
0.0011838361 -3.1702366e-06 0.0 0.0011893243 0.00036228335 0.00063247397 0.00042462518 6e-45
6e-45 1.6823721e-31 0.000921044 0.0005219494 0.00043423963 0.0 0.00018109987 0.0013154405
0.0012070041 -6e-45 -7.192134e-07 6.147517e-35 0.00020537057 0.0005794026 0.00085432146 0.00022456143

exp_avg_sq f4 [4, 32]
00000000: 0f8f 0436 acfe 5339 919a 1e39 0000 0000
00000010: e994 463a 3e67 eb39 2299 4439 cfa8 b92c
00000020: d287 133a 4f21 c337 0000 0000 00d7 963a
00000030: 02ed bc38 34ff c138 e9c7 0639 670a 9a33
00000040: e796 db30 c2fa af37 a816 8239 6758 6239
00000050: 1895 5e39 0000 0000 4074 2e39 2f2a 973a
00000060: d7fb 163a 373e ba2d ff57 fb37 d82d 8e35
00000070: 5a24 a037 4af6 8a38 17c6 893a be7d 9138
00000080: 418b bd2f 40fd 8037 ee83 2938 0000 0000
00000090: 7b20 2339 f26b 9438 a58b 4338 78d9 062e
000000a0: 2bb9 8538 b5e2 8637 0000 0000 5510 4538
000000b0: e08c 9738 03f9 2837 c445 1037 b04a c232
000000c0: e0b9 5732 7b5e c837 e855 fc37 d47a d236
000000d0: 26c4 aa38 0000 0000 7783 f237 dd1a 3b38
000000e0: b476 7f39 88b8 6a2f 0f7b 1838 15d6 db35
000000f0: 3bd5 6f37 0084 0737 9474 d438 3d4d 4836
00000100: a217 0e30 fe00 cf36 a534 c237 0000 0000
00000110: e72b 9038 165e b137 ea4c e337 8a01 5329
00000120: 9ea8 e637 b581 2b37 0000 0000 d92c a637
00000130: 2a88 d237 75a4 0037 a900 4c36 0b1c 3133
00000140: 882e ad31 6903 0537 a2a9 8937 2636 5636
00000150: 0df5 ed37 0000 0000 8f6a 8737 530e ab37
00000160: a970 c838 af60 842f 59ae 3937 5a3e 5935
00000170: 8a43 b836 77c6 a936 fa12 2838 6d15 9f35
00000180: 87c6 0436 2b4d 4f39 c500 1539 0000 0000
00000190: fc30 3a3a c1a6 e339 5926 4139 e1d6 202d
000001a0: ebda 0a3a a701 9b37 0000 0000 3dea 903a
000001b0: cce9 b838 b2d3 aa38 0cde 0039 f4f1 0c32
000001c0: 7d6b a030 9137 c437 f818 6a39 2a8a 5c39
000001d0: 4955 6239 0000 0000 bc81 1639 3441 923a
000001e0: 0a30 133a 3a01 9a2c cdfe 0738 3ecf be35
000001f0: cc21 9a37 cf3c 7738 478f 853a c725 8d38
1.9752804e-06 0.00020217401 0.00015125635 0.0 0.000757529 0.00044899614 0.00018749063 5.2767578e-12
0.0005627844 2.3261322e-05 0.0 0.0011508167 9.008685e-05 9.2504924e-05 0.00012853708 7.173076e-08
1.5977236e-09 2.0978394e-05 0.00024812412 0.00021585972 0.00021227112 0.0 0.0001663724 0.0011532957
0.0005759573 2.117338e-11 2.9962508e-05 1.0593167e-06 1.9090414e-05 6.626228e-05 0.0010511306 6.93756e-05
3.4477846e-10 1.5376718e-05 4.041561e-05 0.0 0.00015556991 7.077296e-05 4.6621677e-05 3.0661224e-11
6.3764244e-05 1.6079613e-05 0.0 4.698367e-05 7.226481e-05 1.0071558e-05 8.599312e-06 2.2618536e-08
1.255691e-08 2.3885854e-05 3.0080744e-05 6.272787e-06 8.142767e-05 0.0 2.8909866e-05 4.4609293e-05
0.00024362915 2.1347735e-10 3.635423e-05 1.6379078e-06 1.4295157e-05 8.077361e-06 0.00010130662 2.984728e-06
5.1692883e-10 6.1691962e-06 2.3151117e-05 0.0 6.8746325e-05 2.1143856e-05 2.7096325e-05 4.6852747e-14
2.7496655e-05 1.0222594e-05 0.0 1.9809626e-05 2.5097357e-05 7.667685e-06 3.0398753e-06 4.123653e-08
5.0402527e-09 7.928212e-06 1.6410664e-05 3.1920003e-06 2.8366712e-05 0.0 1.6142874e-05 2.0391459e-05
9.557728e-05 2.4079358e-10 1.1067453e-05 8.0929533e-07 5.49149e-06 5.059697e-06 4.0071995e-05 1.1852659e-06
1.978509e-06 0.00019769806 0.00014210034 0.0 0.0007102636 0.00043421055 0.000184202 9.14266e-12
0.00052969035 1.847821e-05 0.0 0.0011056137 8.817352e-05 8.145663e-05 0.0001228975 8.204086e-09
1.1672082e-09 2.3390896e-05 0.0002232528 0.00021032305 0.00021584811 0.0 0.00014353445 0.0011158348
0.00056147634 4.3770794e-12 3.242381e-05 1.4216419e-06 1.8373968e-05 5.894602e-05 0.0010189795 6.7304405e-05

exp_avg f4 [4]
00000000: d1ec 38ba 5918 0db7 9c94 8b37 92c4 363a
-0.00070543314 -8.409924e-06 1.6639293e-05 0.000697204

exp_avg_sq f4 [4]
00000000: 1144 dd39 62f3 2139 c52b 7a38 16e7 ea39
0.00042203118 0.00015444824 5.964541e-05 0.0004480413
