logs/comparison_reinforce_coordinates/reinforce_episode_2000.pt (torch, 77789 bytes, 18 tensors)

network.0.weight f4 [64, 2]
00000000: bca2 923e ec3e 9f3e c233 ba3d 8d52 0fbe
00000010: 4547 19be f778 3abe d154 383e abe2 e83d
00000020: cc1e 7abe ab60 91be 5ac8 aabd 0e81 933c
00000030: c1bc 93bc 9f0a 6bbd 03be 66bd 0b55 443e
00000040: 74f6 a63e 4f95 8abe 6477 983e f08a cfbb
00000050: 1a9b 583b 3022 b33e 2adb 2cbd 5b8c 5dbd
00000060: beed 6dbd d718 603e edba b33d 5f53 8dbe
00000070: 8dfc 063e 3a83 97be 4ae6 fcbd c16d fa3b
00000080: d8bc 85be a0e7 3a3e f069 8cbd 6022 1ebe
00000090: c4d2 dfbd a315 40bc 7f4d 3d3c 770c 473e
000000a0: bde8 913e 1fe7 9f3d 1533 38be 95db b93e
000000b0: 6216 1fbd 4094 19bd cbc6 84be 0aca 56be
000000c0: 29dd 3d3e 2790 aa3d 7329 7dbd b888 6bbe
000000d0: 25c1 96be a317 623e 0eac 84bc 73e1 403e
000000e0: 1046 dabd c1e4 94be 96d4 bfbd 60d3 c6bd
000000f0: 2fdf 2e3e c356 253e 3848 cbbd ee15 803e
00000100: 8d83 d33c 6122 1d3e b6ef 8fbe 26a5 603e
00000110: 997a 0abe cd34 a73e 028e 7bbe 9881 373e
00000120: fcb9 7d3e 61a7 98be fdd9 8abe 968b 423e
00000130: 8892 a1bb 39fa a5bd a694 99bc 7279 803e
00000140: 4f36 8fbe 132f 1c3e 7d2b 483e 17ce 54be
00000150: fccd 7ebe 8a23 143e 29db a2bd 07fb 35be
00000160: 4d38 96be 8d6c 03be 3301 2c3e f3dc 1a3e
00000170: 4782 73be cd6c 233e ca14 223e ca50 803e
00000180: 7904 443e 7090 743e c45d 973e c391 9abc
00000190: 8f9d 44bd be87 373e bae5 a43d f5d9 a03e
000001a0: b659 a7bd 11b3 a6bd 1bf4 4e3e b81b 33be
000001b0: e3ec 633d 16df 273e 02e6 c5bd 438c 7ebe
000001c0: 4e44 6e3e c422 32be 4309 7ebd 7395 bd3e
000001d0: e7f9 4fbe 5226 b0bd b486 bb3e 21a9 a5be
000001e0: 83a7 e6bd d8c7 2fbe 0c77 433e ff85 603e
000001f0: 3802 0dba 5296 9a3e dd03 013e 32a9 66be
0.2863978 0.31102693 0.09091903 -0.13996334 -0.14968593 -0.18210207 0.18001105 0.113713585
-0.2442581 -0.28394064 -0.08338995 0.018005874 -0.01803434 -0.057383176 -0.056333553 0.19173066
0.32609904 -0.27067038 0.29778588 -0.0063337013 0.0033051432 0.3498702 -0.0422012 -0.05408893
-0.058088057 0.21884476 0.08775888 -0.2760267 0.13182278 -0.29592305 -0.12348612 0.007642478
-0.2612064 0.1825242 -0.068561435 -0.154428 -0.10928872 -0.011723909 0.011554121 0.19438349
0.28497878 0.07807755 -0.17988236 0.3630034 -0.038839705 -0.037494898 -0.25932917 -0.2097551
0.18541397 0.08328276 -0.061807107 -0.23001373 -0.29444233 0.22079329 -0.016195323 0.18836002
-0.106578946 -0.29080775 -0.093667194 -0.09708285 0.17077325 0.16146378 -0.09925884 0.2501673
0.025819564 0.15345146 -0.28112572 0.21937999 -0.1352333 0.3265747 -0.2456589 0.1792053
0.24777979 -0.298152 -0.27119437 0.1899856 -0.004930798 -0.08104367 -0.018747639 0.25092655
-0.27971122 0.15252332 0.1954784 -0.20781742 -0.24883264 0.14466682 -0.07951958 -0.1777154
-0.2933983 -0.12834378 0.16797332 0.15123348 -0.23780166 0.15959473 0.15828243 0.25061637
0.19142331 0.23883224 0.29563725 -0.018868333 -0.048001822 0.17922875 0.08051629 0.31416288
-0.08171408 -0.08139623 0.20210306 -0.17491043 0.055645835 0.16393694 -0.09663011 -0.24858193
0.23268244 -0.17396075 -0.06202055 0.37028083 -0.20310174 -0.08601059 0.36626208 -0.32355598
-0.11262419 -0.17166078 0.19088382 0.21926115 -0.0005379054 0.3019281 0.1259913 -0.2252548

network.0.bias f4 [64]
00000000: 145b ad3d 0e93 963d 0000 0000 749e dabc
00000010: 0000 0000 0000 0000 0000 0000 c759 913d
00000020: f690 8a3d 435c 5f3d a0e4 0d3d 0000 0000
00000030: 954b ab3d 5df0 fbbc 951f b7bc 0000 0000
00000040: 5698 bdbc 0000 0000 0000 0000 8b89 09bc
00000050: f04e ac3d cab7 2c3d 0000 0000 0000 0000
00000060: 6bf1 c33c 0000 0000 51f1 abbd 9129 da3d
00000070: 0000 0000 0000 0000 2745 5cbd 5442 2f3d
00000080: 5588 ef3c 8eac ccbd 2b9a 2dbc a93a 3bbd
00000090: 74e5 c03d 68c8 25bd 0000 0000 8ec5 563d
000000a0: a6eb 72ba 1b32 8d3d c558 183d 0000 0000
000000b0: 0000 0000 0eff d13d 44ee 1cbd 6dbc 323d
000000c0: bfc0 86bd 4b14 7c3c 914d d5ba 52ef 53bd
000000d0: 0000 0000 bc73 953d 61a9 3dbd 0000 0000
000000e0: 907b 8bbd c794 fc3d 0000 0000 374c d13d
000000f0: 0000 0000 e607 853c ed52 7a3d 6fcb bd3d
0.084646374 0.07352267 0.0 -0.026686884 0.0 0.0 0.0 0.07097202
0.0676593 0.054531347 0.034641862 0.0 0.083640255 -0.030754263 -0.022353927 0.0
-0.023143928 0.0 0.0 -0.008394609 0.08413494 0.042167462 0.0 0.0
0.023918828 0.0 -0.08395637 0.106524594 0.0 0.0 -0.053776886 0.042787865
0.029239813 -0.0999385 -0.010595839 -0.04571024 0.09418765 -0.040474325 0.0 0.052434497
-0.0009266682 0.068943225 0.037194032 0.0 0.0 0.10253726 -0.038313165 0.043636728
-0.06579732 0.015385698 -0.0016273727 -0.051741906 0.0 0.07297465 -0.04630411 0.0
-0.06810677 0.123330645 0.0 0.10219615 0.0 0.016239118 0.06111424 0.092673175

network.2.weight f4 [32, 64]
00000000: dbe4 3ebd a078 6f3c a0ef 94bd 47b4 59be
00000010: 6004 0ebc 607b fdbc 780f 6fbd 93e7 5a3e
00000020: 2069 f03c 1d81 4abe 65ec 253e f0d4 1dbd
00000030: 8f87 b13d 60fd aabd 92bd 193e 7e1a 213e
00000040: 0952 763e 72b0 21be b4c2 863d 019e 9ebb
00000050: 30f2 783d c33f 173d c0c4 c53b 3239 033e
00000060: c1d1 31be bec2 33be 6a93 abbc 0716 3abd
00000070: ac07 4dbe 8e95 163e 94dc 21be f21e a0bd
00000080: ad8c 81bd 3117 113e 2e01 b93d 8112 90bc
00000090: 3444 4d3e bfba 733e 3840 143e 554d cf3d
000000a0: 4336 b13d 0e55 32be 3121 843e 3000 b4bd
000000b0: a05b aa3c be1e 9f3d 9e57 033e ddab 84be
000000c0: e83f a53d 1ccc 63be a261 06be 6236 68be
000000d0: d829 a03d f4d2 12be d93c 74be 7c7a 14be
000000e0: 0036 faba c6d5 b93d 700a 0d3d 2054 58be
000000f0: 74f8 34be 3330 9cbd d661 b13c a46d 0e3e
00000100: a475 d1bd 8e9f 663e 904e 933c b19e 083e
00000110: ec57 d23d 909d b43c 1064 75be 865e 673e
00000120: d3bb 26be c2a0 4e3e 4766 803e f854 e8bd
00000130: 0df5 023c 2bee 5bbc 7b67 5abd 308c 5ebd
00000140: 4a8b ffbd e05a 233c 266b 423e 85ae f2bd
00000150: c2d4 8b3e ac6f 56be e0ce 79bd 2c68 e1bd
00000160: f7b4 4abe eae7 613e 51a1 93bd 39b3 fa3d
00000170: 785c 7ebe 00f2 2fbd dc7f 853e 0882 073e
00000180: a8cd bcbd f86f 13be 358d cd3d e3f2 883e
00000190: 5b14 883e 436f cdbd 860f 6a3e 243a eb3d
000001a0: 3b4a 4fbc 432c 1dbd 2f1d a63e 2036 183d
000001b0: d0f9 c3bd e249 343e 8875 a7bd bf6a 873e
000001c0: c42f 46bd b337 95bd 9647 1c3d 5a72 1fbd
000001d0: d8e7 1d3d 4ce1 54be b27f ebbd 6ada 74be
000001e0: c38b 4c3d f7ad de3d 2c1b 1b3e 1f50 56be
000001f0: c2d2 7ebe 6a41 203e d7a0 e1bd e3c2 283e
00000200: 67c1 3d3e 41e7 483d 069a 57be 21d1 bfbd
00000210: 6057 233d 3002 afbd 9872 1e3d cdd0 8cbe
00000220: a2c7 d23d ad02 813e fea8 50bd 88de 483e
00000230: a949 bb3c bea4 fb3d 694f 673e 409f c83c
00000240: c02e 563d 9807 30bd 503b 58be 3380 a8bd
00000250: 175b 9fbc d4ad 1a3c 8a76 1a3e 82fd 3ebe
00000260: 0ce1 983c e665 0f3e e1a4 ab3d 28fe b0bd
00000270: 764d 3dbe c0b6 a9bc 7ad7 34bd 67a5 67be
00000280: dbe1 113e f7f1 55bd 9de2 36be 9ac6 c5bd
00000290: 5ce2 883e c1a1 3f3e 68df 25bd b86c 0ebe
000002a0: fb31 81bd bbef 1b3e b07b 873c d015 b8bc
000002b0: 90d2 cf3d 709b 373e bd29 8cbe ebd8 39be
000002c0: 8a42 113c ae56 e93d ce2d 03bd b7f6 2bbe
000002d0: 0054 163e c260 983e 32cc 34be 60c4 033e
000002e0: a2e2 0c3d 19f4 b4bd 367e 61be a6f1 b73d
000002f0: a032 0abd d977 023e f769 c3bd ad53 f93c
00000300: a827 d3bd b080 1ebd 2457 87bd 3cf2 23be
00000310: a09a fabd 6877 373d 8032 0e3e be46 3cbe
00000320: ca36 233e aa27 57be 46f5 69be a061 0dbc
00000330: 8414 3a3e 6e1c 303e f4ef 62be 5c8f d03d
00000340: 361e 74be 1af0 7d3e 7ce3 b0bd 3e8f 11be
00000350: d877 4f3d 706c 63be 4c5c cd3d 84ed 88bd
00000360: b472 b3bd 7221 7ebe 5857 f63d 1e05 7e3e
00000370: a238 64be 48fc b8bd e645 633e 78ee 4fbd
00000380: e271 743e 92ba 5a3e c0db 553e 12cc 03be
00000390: ec73 02be 981b 903d 7403 3ebe c44a 9f3d
000003a0: 1ce5 76be 6c4a ad3d 3e4f 3dbe 2c1e 7bbe
000003b0: 3819 1c3d 8c6f bdbd d41a 323e e015 8bbd
000003c0: 0c94 aabd 20bc a33c c08b 1abd a2e3 0b3e
000003d0: 10f2 253d 703c 4b3d 3638 033e 28f4 7d3d
000003e0: 983b 2c3d a01e 93bd a656 5cbe 84c7 11be
000003f0: c09f 43bc 28c2 d83d d25d 7abe 46af 6b3e
-0.046604972 0.014616162 -0.07272267 -0.21260177 -0.008668035 -0.030942619 -0.05836436 0.21377401
0.029347003 -0.19775815 0.16203459 -0.03853315 0.08668434 -0.08349109 0.15013722 0.15732762
0.24054731 -0.15789965 0.065801054 -0.004840613 0.060777843 0.036926042 0.0060354173 0.12814787
-0.17365171 -0.17554757 -0.020944316 -0.045431163 -0.20022458 0.14705488 -0.158068 -0.07818402
-0.0632566 0.14169003 0.09033428 -0.017586948 0.20045549 0.23801707 0.14477623 0.10122172
0.08652928 -0.17415258 0.25806573 -0.08789098 0.020795643 0.077695355 0.12826392 -0.2591237
0.0806883 -0.2224583 -0.13123181 -0.22676995 0.07820481 -0.14338285 -0.23851337 -0.14499849
-0.001908958 0.09073977 0.034433782 -0.21125841 -0.17672902 -0.07626381 0.021653097 0.13909012
-0.10227516 0.22521803 0.017981797 0.13341786 0.10270676 0.022047788 -0.23963952 0.22594652
-0.16282587 0.20178512 0.2507803 -0.113443315 0.007992995 -0.013423483 -0.053321343 -0.054332912
-0.12477739 0.009970397 0.18986186 -0.11849693 0.2731076 -0.20941037 -0.060988307 -0.11006197
-0.19795595 0.22061124 -0.07208503 0.12241215 -0.24839962 -0.0429554 0.2607411 0.13233197
-0.09218913 -0.14398181 0.10036699 0.26747808 0.2657803 -0.10030987 0.22857484 0.11485699
-0.012651975 -0.03837229 0.3244414 0.037160993 -0.09569132 0.17606309 -0.08176714 0.26448628
-0.048385397 -0.072860144 0.038154207 -0.038927414 0.03855118 -0.20789069 -0.11498965 -0.23911443
0.049937975 0.10873025 0.15147084 -0.20929001 -0.24885085 0.15649953 -0.11017006 0.16480593
0.18530808 0.049048666 -0.21054849 -0.0936606 0.03987825 -0.08545339 0.038683504 -0.27503052
0.10291983 0.25197354 -0.050942414 0.19616139 0.022862272 0.122872815 0.22588886 0.024489999
0.052290678 -0.042975992 -0.21116376 -0.08227577 -0.019452615 0.009440858 0.15084282 -0.18651393
0.018661998 0.14003715 0.083810575 -0.086422265 -0.1848658 -0.020717025 -0.044150807 -0.2262169
0.14246313 -0.05223271 -0.17859884 -0.09657021 0.26735198 0.18714048 -0.04049626 -0.1390866
-0.06308361 0.15228169 0.016538471 -0.022471339 0.101475835 0.17930388 -0.27375594 -0.18149154
0.008865962 0.11393486 -0.032026105 -0.16793333 0.14680481 0.2976132 -0.1765602 0.1286788
0.03439582 -0.088356204 -0.22020802 0.08981638 -0.033739686 0.12741031 -0.095416956 0.030435408
-0.10310298 -0.038696945 -0.06608418 -0.16010374 -0.12236524 0.04479161 0.13886452 -0.18386361
0.15938869 -0.21011224 -0.2284747 -0.008629233 0.18171889 0.17198345 -0.22161847 0.10183594
-0.2383965 0.24798623 -0.08637139 -0.14214799 0.0506514 -0.22209334 0.1002737 -0.066859275
-0.08762112 -0.24817446 0.12028378 0.2480664 -0.22287229 -0.09032494 0.22194633 -0.05076453
0.23871568 0.21360233 0.20884609 -0.12870815 -0.12739533 0.07036513 -0.18556005 0.07777932
-0.24110836 0.084614605 -0.1848726 -0.24523228 0.038109988 -0.092497915 0.17393047 -0.06791282
-0.08329019 0.019987166 -0.037730932 0.13661054 0.040514052 0.049618185 0.12814412 0.062000424
0.04204902 -0.07183576 -0.21517429 -0.14236265 -0.011939943 0.10583907 -0.24449852 0.2301608

network.2.bias f4 [32]
00000000: ee1b 4fbd 1424 993c 8d2a b13d 0000 0000
00000010: 62fa a73d 46a5 863c 367d 9e3d 1af0 b7bc
00000020: 4743 443d 7481 5dbd 0000 0000 e536 a13d
00000030: 5241 34bd d3dc 1b3d d4f0 4f3c 84a4 a4bc
00000040: 3318 1dbc 13c6 00bd 50c1 1b3d 874c 373d
00000050: 8fb5 25bc 0000 0000 059a bdbd 7b7b 523d
00000060: 3f26 93bc 3cc6 2cbc fc7c 7fbd 1414 38bc
00000070: d04c 87bc cec4 353d bf06 083d 292e 2f3d
-0.050563745 0.018693961 0.08650694 0.0 0.082020536 0.01643623 0.07738726 -0.022453357
0.047915723 -0.054078534 0.0 0.078717984 -0.044007607 0.03805239 0.012691695 -0.020097978
-0.009588289 -0.0314389 0.038026154 0.044750717 -0.010114088 0.0 -0.092578925 0.05138729
-0.017962573 -0.01054531 -0.062375054 -0.011235256 -0.01651612 0.04437714 0.03320956 0.04276863

network.4.weight f4 [4, 32]
00000000: 45c2 ab3e fe11 983e acf4 de3e 14ba a6bd
00000010: 9e0b b03e aadc 033d 85f8 983e b996 8dbd
00000020: cc36 eb3e 8c0a bdbd bef3 6b3e 07cf 0d3e
00000030: 2151 23be f6ba bc3e b35d 833e ff70 98be
00000040: 1127 c3be 9d9b 98be b689 b73e 6526 e5bd
00000050: 8eeb 0ebe a3f9 cd3e 7af2 9b3e 9234 b33e
00000060: 7248 c43e e1e2 a63e 67a8 2bbe 82db 003d
00000070: 1b42 92be 6d4e 053d 85f4 823e a76e 86be
00000080: 08be 563e 4bce 3f3e 49af 81be 1a18 bdbe
00000090: 10f6 31be 0a54 2a3d cf00 ddbe b4c6 c0be
000000a0: 79f5 973d 3f7c b4bc 3fff 7fbe 78c6 fcbe
000000b0: fd50 903e 1bb5 babd 36d5 9f3d 4698 ce3d
000000c0: c90d 0abe 9fff ebbc 7d0e c3bd d7e0 cfbe
000000d0: b753 833e a003 a3be 007e 973d babf c1be
000000e0: 89b7 523e 0e72 29be 504c b03e 0e17 8f3e
000000f0: 6d76 21be 5557 a8be 593e 983e f356 473e
00000100: e440 9a3e 4969 f93d 15bc 2ebe 972a 99be
00000110: 6f8e 2bbe 64cc 6bbe e291 4dbe 1f07 60bd
00000120: d914 9cbe a0db dfbd 52cf 0bbe 031c bfbe
00000130: 5a22 ce3e 0bbc 353d 0a06 dcbe 085a fd3c
00000140: 96de b0bd 9612 d1be b60b 823e aa3c b2bd
00000150: 78b8 9bbd b2c6 cd3e ed48 293d 41af 833e
00000160: f02f d03d 6ee9 a5be a4e3 623e 3cb4 28be
00000170: f474 a33e ca12 a43d 2916 04bb eeac b6be
00000180: 3385 97be 7d90 793e 3418 3abe 0e18 893e
00000190: 4928 b73d 0c90 df3d 4cc5 6ebe f26c d1be
000001a0: b287 edba 9641 77be 98ce 78bd 8808 ad3e
000001b0: 9e71 74be a4d9 7c3d c77f fcbd 9c49 23bd
000001c0: d1a7 953e 1e56 c7bd 3cc2 8b3d 2d27 9f3d
000001d0: 7aeb a13e 3abc 6dbe 5a3c 20be 54fe b83e
000001e0: 90e2 00be 2791 a4bd 7b7b 353d 768b ab3d
000001f0: e181 e3be 2bf1 90bd e382 df3e 41db b63e
0.33546653 0.29701227 0.43546045 -0.0814096 0.34383863 0.032192864 0.29877105 -0.06913514
0.45940244 -0.09230527 0.23042199 0.13848506 -0.15948917 0.3686139 0.25657424 -0.2977371
-0.38115743 -0.29806224 0.35847253 -0.11188964 -0.13957044 0.4022952 0.30458432 0.35001045
0.3833652 0.3259497 -0.16763459 0.03145934 -0.2856606 0.032545496 0.2557718 -0.26256296
0.20970929 0.18731038 -0.25329044 -0.3693245 -0.17379022 0.041584052 -0.4316468 -0.37651598
0.07419867 -0.022031901 -0.24999712 -0.4937017 0.2818679 -0.091165744 0.07804339 0.100876376
-0.13481821 -0.028808413 -0.09524248 -0.40601227 0.25649807 -0.31838703 0.073970795 -0.37841588
0.20577826 -0.16547415 0.34433222 0.27947277 -0.15767832 -0.3287913 0.29735067 0.19466762
0.30127633 0.12178285 -0.17063935 -0.29915306 -0.16753553 -0.23027188 -0.20075181 -0.05469429
-0.30484655 -0.10930562 -0.13653305 -0.3732606 0.40260583 0.044368785 -0.42973357 0.03092672
-0.08636205 -0.40834492 0.2539956 -0.08702977 -0.07603544 0.40190655 0.041329313 0.25719646
0.10165393 -0.32404655 0.2215715 -0.16475004 0.31925166 0.08011396 -0.002015481 -0.3567881
-0.2959381 0.24371524 -0.18173295 0.26776165 0.08943231 0.10916147 -0.2331745 -0.4090343
-0.0018122105 -0.24146113 -0.0607439 0.3379557 -0.23871467 0.061730996 -0.12329059 -0.03986512
0.29229596 -0.097332224 0.06824157 0.07771144 0.31624967 -0.23216334 -0.15648022 0.36131537
-0.12586427 -0.08035498 0.044307213 0.083762094 -0.44435027 -0.07077249 0.43654546 0.35714152

network.4.bias f4 [4]
00000000: 2c32 4e3d a06a 73bd 5366 4fbd 9a0a 273d
0.050340816 -0.059427857 -0.050634693 0.040781595

exp_avg f4 [64, 2]
00000000: 8e9d e83a fddf f63a 83f4 8539 63b1 0a39
00000010: 0000 0000 0000 0000 bef5 bc37 23c2 d2b8
00000020: 0000 0000 0000 0000 0000 0000 0000 0000
00000030: 0000 0000 0000 0000 bcb7 c039 9b74 e539
00000040: eabd 6a3a d6bd 4b3a 4904 e238 9c38 a439
00000050: 97ae 4938 d93e 463a 0000 0000 0000 0000
00000060: 4060 59ba 8545 6cba a333 55b8 6e93 bb35
00000070: 24c3 0439 ce5e 6eb6 0000 0000 0000 0000
00000080: ef76 d63a 2bd8 f03a 0000 0000 0000 0000
00000090: 0000 0000 0000 0000 280e 09ba 4e91 3eba
000000a0: ffc6 ac3a 5ae2 e03a 0f31 b23a 7586 c33a
000000b0: 0000 0000 0000 0000 0000 0000 0000 0000
000000c0: 29c5 333b 625f 3d3b 0000 0000 0000 0000
000000d0: dac7 2cb9 f539 46ba 0dfe b838 97e6 173a
000000e0: 0000 0000 0000 0000 0000 0000 0000 0000
000000f0: 263b 773a 997d 823a ee39 3a37 23b7 ab38
00000100: e41f d139 8c8e 1a3a ac7c c53a ae4d df3a
00000110: 5d91 5a3a e904 753a 0de6 47ba e9bf 01bb
00000120: fb92 9c3a a1ff 973a 6e21 90b9 06ad a7ba
00000130: 0000 0000 0000 0000 d995 a6ba f881 b1ba
00000140: 5614 85ba 49bc 2cbb 5ec2 dd3a 1fe5 ec3a
00000150: c22c 6e38 ec66 1a39 0000 0000 0000 0000
00000160: 0000 0000 0000 0000 b0e6 80ba 0735 5eba
00000170: 9db2 85ba ec88 2dbb 9084 5ab6 0863 9239
00000180: ab13 853a cf7c a93a dcb7 8a37 5d2e 8bb9
00000190: e09a a5ba 9898 a1ba a251 f13a 1502 0a3b
000001a0: 0000 0000 0000 0000 e084 ac39 4656 253a
000001b0: 4695 df3a 7495 073b 0000 0000 0000 0000
000001c0: 6f2b 9036 1ccf a3b8 e8ec 98ba b708 a2ba
000001d0: 0000 0000 0000 0000 1dfe b43a 500f a63a
000001e0: 0000 0000 0000 0000 5394 223a d89b 503a
000001f0: d759 19ba ea11 3cb9 a247 9e39 2700 8339
0.001774715 0.0018835064 0.00025549912 0.00013226787 0.0 0.0 2.2525779e-05 -0.00010049741
0.0 0.0 0.0 0.0 0.0 0.0 0.00036757987 0.00043765162
0.0008954691 0.0007772123 0.00010777318 0.00031322695 4.8084734e-05 0.00075624656 0.0 0.0
-0.00082922354 -0.0009013045 -5.0831248e-05 1.3975493e-06 0.00012661197 -3.5519947e-06 0.0 0.0
0.0016362349 0.001837497 0.0 0.0 0.0 0.0 -0.00052282447 -0.0007269577
0.0013181864 0.0017157302 0.0013594943 0.0014917391 0.0 0.0 0.0 0.0
0.002743075 0.0028895964 0.0 0.0 -0.00016477649 -0.0007561737 8.821124e-05 0.00057945534
0.0 0.0 0.0 0.0 0.0009431116 0.0009955644 1.1099952e-05 8.188027e-05
0.00039887347 0.0005895875 0.0015067062 0.00170367 0.0008337701 0.000934674 -0.0007625528 -0.0019798225
0.0011945659 0.0011596569 -0.00027490727 -0.0012792654 0.0 0.0 -0.0012709453 -0.0013542762
-0.0010153155 -0.0026357344 0.0016918888 0.0018073655 5.6785306e-05 0.00014724926 0.0 0.0
0.0 0.0 -0.0009834375 -0.00084765296 -0.0010200326 -0.0026479317 -3.2561693e-06 0.00027921074
0.0010152956 0.0012930873 1.6536498e-05 -0.0002654669 -0.0012634657 -0.0012328802 0.0018411169 0.002105837
0.0 0.0 0.00032905396 0.0006307106 0.0017058037 0.0020688446 0.0 0.0
4.2965908e-06 -7.811023e-05 -0.0011667283 -0.0012362216 0.0 0.0 0.0013808642 0.0012669358
0.0 0.0 0.00062019116 0.0007957793 -0.0005849874 -0.0001793575 0.0003018948 0.0002498638

exp_avg_sq f4 [64, 2]
00000000: 73fa ee38 e9f1 0538 ef84 3438 dd20 a335
00000010: 0000 0000 0000 0000 d4f2 5c38 e603 7437
00000020: 0000 0000 0000 0000 0000 0000 0000 0000
00000030: 0000 0000 0000 0000 14b0 2b37 7c52 6937
00000040: 13a2 9138 cf6d 5f37 80c5 8238 f6e6 4737
00000050: abc6 0339 94a4 f037 0000 0000 0000 0000
00000060: f4d3 9d37 a8f7 1938 a6a5 ff37 c4a8 ea34
00000070: 0ed5 9f38 989c 1036 0000 0000 0000 0000
00000080: 0e0f 3a37 95ed 8138 0000 0000 0000 0000
00000090: 0000 0000 0000 0000 e9c2 4b38 33f7 0b38
000000a0: 59ed a638 eed6 1b38 639c 6337 691f 5038
000000b0: 0000 0000 0000 0000 0000 0000 0000 0000
000000c0: d829 e138 23e5 d138 0000 0000 0000 0000
000000d0: 09a3 dc36 7b29 0e38 0cf6 ca38 6c42 f237
000000e0: 0000 0000 0000 0000 0000 0000 0000 0000
000000f0: 28f0 1738 4501 4737 5acb ff36 976a 3937
00000100: cda7 c937 27f6 0b37 3c3c 3d37 cf4d 6538
00000110: f04d 6f36 0b39 7437 fed3 d436 d78c 8738
00000120: e942 6039 c6a9 8937 b97c cb37 b7fb 1b39
00000130: 0000 0000 0000 0000 0807 1d38 01d5 6338
00000140: 02f1 2b37 aba4 fe38 dcff a539 d735 1538
00000150: 8866 f836 01c0 8a38 0000 0000 0000 0000
00000160: 0000 0000 0000 0000 0679 de38 4def 7b38
00000170: b101 aa37 4f68 5939 4f5e 4b38 a6d2 d536
00000180: 9361 b937 951c c037 4423 dd37 2ab9 8237
00000190: 4d38 0438 01df 4138 f10c 3638 25fd 8d38
000001a0: 0000 0000 0000 0000 9d64 1f39 374f 3e37
000001b0: 306a 0f38 15d2 9338 0000 0000 0000 0000
000001c0: 85c4 4038 4968 7a36 dc42 4938 e680 a038
000001d0: 0000 0000 0000 0000 e10c dc38 32af 6e37
000001e0: 0000 0000 0000 0000 b0a6 2f38 a574 0837
000001f0: 89c4 6838 5a2b 1537 e541 9f38 0d59 8f36
0.00011395374 3.1934967e-05 4.303915e-05 1.2154011e-06 0.0 0.0 5.267824e-05 1.4544441e-05
0.0 0.0 0.0 0.0 0.0 0.0 1.0233391e-05 1.3907087e-05
6.9443275e-05 1.3317403e-05 6.23567e-05 1.1915099e-05 0.00012567143 2.8686867e-05 0.0 0.0
1.8814557e-05 3.670869e-05 3.0475505e-05 4.370869e-07 7.621395e-05 2.1548822e-06 0.0 0.0
1.1089969e-05 6.1954524e-05 0.0 0.0 0.0 0.0 4.8580496e-05 3.3370405e-05
7.959706e-05 3.715505e-05 1.3566666e-05 4.9620317e-05 0.0 0.0 0.0 0.0
0.0001073663 0.00010008577 0.0 0.0 6.5754907e-06 3.389407e-05 9.6779404e-05 2.8879578e-05
0.0 0.0 0.0 0.0 3.622487e-05 1.186162e-05 7.6232654e-06 1.1051677e-05
2.4039206e-05 8.342357e-06 1.1279302e-05 5.467032e-05 3.565914e-06 1.4556815e-05 6.3427715e-06 6.463535e-05
0.0002138723 1.641073e-05 2.4257564e-05 0.00014875723 0.0 0.0 3.7438265e-05 5.4319393e-05
1.0248508e-05 0.000121423356 0.00031661883 3.557451e-05 7.402912e-06 6.616116e-05 0.0 0.0
0.0 0.0 0.00010608327 6.006593e-05 2.0266367e-05 0.0002073359 4.8486803e-05 6.3724174e-06
2.2099155e-05 2.2901493e-05 2.6361675e-05 1.5583431e-05 3.1523687e-05 4.6222474e-05 4.3404234e-05 6.770556e-05
0.0 0.0 0.00015200903 1.1343326e-05 3.419275e-05 7.048637e-05 0.0 0.0
4.595939e-05 3.7313605e-06 4.7984402e-05 7.653404e-05 0.0 0.0 0.00010492816 1.4226696e-05
0.0 0.0 4.187849e-05 8.13339e-06 5.5496148e-05 8.891186e-06 7.5939846e-05 4.272099e-06

exp_avg f4 [64]
00000000: 9831 3c3a 57d3 5c38 0000 0000 5cf9 a937
00000010: 0000 0000 0000 0000 0000 0000 c3c3 4039
00000020: 128f ba39 3973 32b8 b775 48b8 0000 0000
00000030: f035 c5b9 84d2 e5b7 7576 9938 0000 0000
00000040: 3275 403a 0000 0000 0000 0000 b870 53b9
00000050: 2fdd 033a ae01 223a 0000 0000 0000 0000
00000060: 8032 9c3a 0000 0000 91f7 1eb9 5bb6 74b8
00000070: 0000 0000 0000 0000 e291 dc39 68cf bb37
00000080: f7f2 1039 09ac 313a b871 c639 e9bf 01ba
00000090: a125 dc39 e8e4 85b9 0000 0000 7b34 15ba
000000a0: 49bc 2cba 1633 2e3a ec66 1a38 0000 0000
000000b0: 0000 0000 1665 0eba ec88 2dba b59d c4b7
000000c0: c69a e539 5dec 50b7 5a8d 11ba 2f6c 5b3a
000000d0: 0000 0000 858c fc37 554b 473a 0000 0000
000000e0: 84cf 3135 319c 08ba 0000 0000 c7b0 163a
000000f0: 0000 0000 2f13 7839 9cbd 9eb9 586f d437
0.0007179021 5.2648913e-05 0.0 2.0262487e-05 0.0 0.0 0.0 0.00018383474
0.0003558328 -4.2545817e-05 -4.7793346e-05 0.0 -0.00037614955 -2.7396956e-05 7.317673e-05 0.0
0.0007341682 0.0 0.0 -0.00020164519 0.00050302123 0.000618006 0.0 0.0
0.0011916906 0.0 -0.0001516028 -5.8343965e-05 0.0 0.0 0.0004207036 2.2388718e-05
0.00013823422 0.00067776494 0.0003785023 -0.00049495563 0.00041989706 -0.00025538285 0.0 -0.0005691719
-0.0006589336 0.00066451856 3.6812315e-05 0.0 0.0 -0.0005431933 -0.0006619829 -2.3438459e-05
0.000437936 -1.2452799e-05 -0.0005552374 0.00083703076 0.0 3.0106175e-05 0.0007602473 0.0
6.6239613e-07 -0.00052112626 0.0 0.0005748388 0.0 0.0002365827 -0.00030277378 2.5324218e-05

exp_avg_sq f4 [64]
00000000: 15ec 6237 5118 a636 0000 0000 aa37 a536
00000010: 0000 0000 0000 0000 0000 0000 e55e 1d36
00000020: b52d 0337 f1cf f036 dbec 7f37 0000 0000
00000030: 1ff0 9336 836e 2436 e651 d936 0000 0000
00000040: dce0 c436 0000 0000 0000 0000 9a0b dd36
00000050: fe02 3237 e91b 9c36 0000 0000 0000 0000
00000060: 39a6 8837 0000 0000 4d8d 5d36 6e0d 8437
00000070: 0000 0000 0000 0000 4e2c 6b36 3234 0736
00000080: 94a0 2d36 dd62 ac36 63a6 c335 4dd7 b436
00000090: ea19 d137 ad07 6237 0000 0000 ecc3 f636
000000a0: 7c6f 2737 b9ed 1038 1d87 a736 0000 0000
000000b0: 0000 0000 c3cc 8337 6eb8 8f37 274e b436
000000c0: 12c7 8436 9563 8736 c4e2 c936 c748 0e37
000000d0: 0000 0000 3bc6 8c37 d403 0637 0000 0000
000000e0: 9f2a 6a36 1ec5 3a37 0000 0000 8ce9 4837
000000f0: 0000 0000 b020 8436 0b5d fa36 53cf fb36
1.3525617e-05 4.9500163e-06 0.0 4.9238633e-06 0.0 0.0 0.0 2.345006e-06
7.8188505e-06 7.176765e-06 1.5254332e-05 0.0 4.408895e-06 2.450223e-06 6.476638e-06 0.0
5.8674323e-06 0.0 0.0 6.587664e-06 1.0610323e-05 4.6524115e-06 0.0 0.0
1.6289867e-05 0.0 3.3013814e-06 1.574188e-05 0.0 0.0 3.5043518e-06 2.014695e-06
2.5872478e-06 5.1375087e-06 1.4577057e-06 5.3894823e-06 2.4926809e-05 1.3472437e-05 0.0 7.3541796e-06
9.979933e-06 3.4553672e-05 4.992717e-06 0.0 0.0 1.5711767e-05 1.713281e-05 5.373516e-06
3.9570814e-06 4.0349064e-06 6.016666e-06 8.480804e-06 0.0 1.6781609e-05 7.987914e-06 0.0
3.4893526e-06 1.1132359e-05 0.0 1.1975306e-05 0.0 3.937712e-06 7.461412e-06 7.5045186e-06

exp_avg f4 [32, 64]
00000000: 0400 0000 0000 0000 0000 0000 0400 0000
00000010: 0000 0000 0000 0000 0000 0000 0400 0000
00000020: 0000 0000 0400 0000 0400 0000 0000 0000
00000030: 0400 0000 0000 0000 0000 0000 0000 0000
00000040: 0400 0000 0000 0000 0000 0000 0400 0000
00000050: 0400 0000 0400 0000 0000 0000 0000 0000
00000060: 0400 0000 0000 0000 0400 0000 0400 0000
00000070: 0000 0000 0000 0000 0400 0000 0400 0000
00000080: 0400 0000 0400 0000 0400 0000 0400 0000
00000090: 0000 0000 0400 0000 0000 0000 0400 0000
000000a0: 0400 0000 0000 0000 0400 0000 0000 0000
000000b0: 0000 0000 0400 0000 0400 0000 0400 0000
000000c0: 0400 0000 0400 0000 0400 0000 0400 0000
000000d0: 0000 0000 0000 0000 0400 0000 0000 0000
000000e0: 0000 0000 0400 0000 0000 0000 0000 0000
000000f0: 0000 0000 0400 0000 0400 0000 0000 0000
00000100: 35bc 9039 71d4 89b7 0000 0000 179b f738
00000110: 0000 0000 0000 0000 0000 0000 e0f3 b638
00000120: e1b7 f0b7 7f66 eb38 73aa 4339 0000 0000
00000130: 9267 cd38 6d86 29b7 c7aa 90b7 0000 0000
00000140: f48b 8db7 0000 0000 0000 0000 fc89 d238
00000150: 5a55 2439 6fa7 e738 0000 0000 0000 0000
00000160: dec9 f138 0000 0000 e6e9 c5b7 5d1f e038
00000170: 0000 0000 0000 0000 496c 1139 92be b738
00000180: ba89 c538 a8cc b3b7 f20a d838 5083 a6b7
00000190: 1a6b 11b8 bb6c aeb7 0000 0000 3de1 0439
000001a0: a905 42b7 e693 bfb7 c171 8eb7 0000 0000
000001b0: 0000 0000 87fe 1d39 f89a 85b7 f229 4939
000001c0: 46cd 4139 6a66 cb38 68cb 8438 a8e4 4139
000001d0: 0000 0000 fe83 93b7 ba9b d238 0000 0000
000001e0: 6074 93b7 1433 3f39 0000 0000 b866 12b8
000001f0: 0000 0000 8a6a 4239 8858 2a39 1454 c0b7
00000200: a649 f938 4457 0eb8 0000 0000 2e15 6a38
00000210: 0000 0000 0000 0000 0000 0000 c806 1a38
00000220: fcc0 27b8 7a7e 1738 c65b d638 0000 0000
00000230: baa0 2c38 c766 e2b7 b681 32b8 0000 0000
00000240: 0400 0000 0000 0000 0000 0000 bbe0 6638
00000250: 094b 6738 0b1b f437 0000 0000 0000 0000
00000260: 2f76 3d38 0000 0000 0400 0000 03db 4338
00000270: 0000 0000 0000 0000 fd8e 9638 46d7 db37
00000280: b31b 4838 0400 0000 422e 0138 0400 0000
00000290: c979 77b8 0400 0000 0000 0000 7065 8a38
000002a0: 0400 0000 2fea 1ab8 0400 0000 0000 0000
000002b0: 0000 0000 453d 7338 0400 0000 369e bf38
000002c0: 7b51 d738 ff37 eb37 8518 b737 f83c d938
000002d0: 0000 0000 cb56 d6b7 e38d 7638 0000 0000
000002e0: d122 70b7 2afc b938 0000 0000 f358 5bb8
000002f0: 0000 0000 afce ba38 9a48 b138 e18b 62b8
00000300: 0000 0000 0000 0000 0000 0000 0000 0000
00000310: 0000 0000 0000 0000 0000 0000 0000 0000
00000320: 0000 0000 0000 0000 0000 0000 0000 0000
00000330: 0000 0000 0000 0000 0000 0000 0000 0000
00000340: 0000 0000 0000 0000 0000 0000 0000 0000
00000350: 0000 0000 0000 0000 0000 0000 0000 0000
00000360: 0000 0000 0000 0000 0000 0000 0000 0000
00000370: 0000 0000 0000 0000 0000 0000 0000 0000
00000380: 0000 0000 0000 0000 0000 0000 0000 0000
00000390: 0000 0000 0000 0000 0000 0000 0000 0000
000003a0: 0000 0000 0000 0000 0000 0000 0000 0000
000003b0: 0000 0000 0000 0000 0000 0000 0000 0000
000003c0: 0000 0000 0000 0000 0000 0000 0000 0000
000003d0: 0000 0000 0000 0000 0000 0000 0000 0000
000003e0: 0000 0000 0000 0000 0000 0000 0000 0000
000003f0: 0000 0000 0000 0000 0000 0000 0000 0000
6e-45 0.0 0.0 6e-45 0.0 0.0 0.0 6e-45
0.0 6e-45 6e-45 0.0 6e-45 0.0 0.0 0.0
6e-45 0.0 0.0 6e-45 6e-45 6e-45 0.0 0.0
6e-45 0.0 6e-45 6e-45 0.0 0.0 6e-45 6e-45
6e-45 6e-45 6e-45 6e-45 0.0 6e-45 0.0 6e-45
6e-45 0.0 6e-45 0.0 0.0 6e-45 6e-45 6e-45
6e-45 6e-45 6e-45 6e-45 0.0 0.0 6e-45 0.0
0.0 6e-45 0.0 0.0 0.0 6e-45 6e-45 0.0
0.00027606045 -1.6430598e-05 0.0 0.000118067655 0.0 0.0 0.0 8.7238615e-05
-2.8695855e-05 0.000112247646 0.00018660146 0.0 9.794453e-05 -1.0104483e-05 -1.7245662e-05 0.0
-1.687368e-05 0.0 0.0 0.00010039282 0.00015672055 0.00011046125 0.0 0.0
0.00011529376 0.0 -2.3593147e-05 0.00010686994 0.0 0.0 0.00013868617 8.7616165e-05
9.4193456e-05 -2.1433763e-05 0.00010301721 -1.984989e-05 -3.467044e-05 -2.0793048e-05 0.0 0.00012672409
-1.1564619e-05 -2.2837845e-05 -1.698069e-05 0.0 0.0 0.00015067506 -1.5926998e-05 0.0001918448
0.00018482385 9.6988704e-05 6.332138e-05 0.00018491095 0.0 -1.758523e-05 0.00010042587 0.0
-1.7577957e-05 0.00018234208 0.0 -3.4904777e-05 0.0 0.0001854097 0.00016245444 -2.2927336e-05
0.00011886963 -3.393671e-05 0.0 5.5809673e-05 0.0 0.0 0.0 3.6722777e-05
-3.9995633e-05 3.6118996e-05 0.00010221409 0.0 4.1157684e-05 -2.6989159e-05 -4.255931e-05 0.0
6e-45 0.0 0.0 5.504557e-05 5.5144574e-05 2.909966e-05 0.0 0.0
4.517118e-05 0.0 6e-45 4.6695593e-05 0.0 0.0 7.179191e-05 2.6207079e-05
4.7709513e-05 6e-45 3.0799078e-05 6e-45 -5.900281e-05 6e-45 0.0 6.599247e-05
6e-45 -3.693456e-05 6e-45 0.0 0.0 5.7992776e-05 6e-45 9.137059e-05
0.00010267176 2.8040258e-05 2.1826718e-05 0.00010358723 0.0 -2.5551204e-05 5.8783113e-05 0.0
-1.4313221e-05 8.868457e-05 0.0 -5.229651e-05 0.0 8.907669e-05 8.453541e-05 -5.401287e-05
0.0 0.0 0.0 0.0 0.0 0.0 0.0 0.0
0.0 0.0 0.0 0.0 0.0 0.0 0.0 0.0
0.0 0.0 0.0 0.0 0.0 0.0 0.0 0.0
0.0 0.0 0.0 0.0 0.0 0.0 0.0 0.0
0.0 0.0 0.0 0.0 0.0 0.0 0.0 0.0
0.0 0.0 0.0 0.0 0.0 0.0 0.0 0.0
0.0 0.0 0.0 0.0 0.0 0.0 0.0 0.0
0.0 0.0 0.0 0.0 0.0 0.0 0.0 0.0

exp_avg_sq f4 [32, 64]
00000000: 9fea 0437 0000 0000 0000 0000 1831 9635
00000010: 0000 0000 0000 0000 0000 0000 1661 f635
00000020: 0000 0000 0551 eb34 afbe c536 0000 0000
00000030: fe64 2236 0000 0000 0000 0000 0000 0000
00000040: 66f0 2f35 0000 0000 0000 0000 a251 f435
00000050: 6d64 d435 0e09 9d36 0000 0000 0000 0000
00000060: a78a 7835 0000 0000 d84d 2135 046f 0b36
00000070: 0000 0000 0000 0000 b9f8 da35 1cfe 0a36
00000080: f6a9 b235 b29e 5335 b7af 8036 1ab4 8934
00000090: 0000 0000 73ee 0535 0000 0000 6eb8 6336
000000a0: 273e d833 0000 0000 b323 0035 0000 0000
000000b0: 0000 0000 7f3d 2036 a71f 6134 9ef5 8536
000000c0: 57e2 8336 927e 7234 6133 9d35 4353 9736
000000d0: 0000 0000 0000 0000 53a3 9335 0000 0000
000000e0: 0000 0000 ce37 e536 0000 0000 0000 0000
000000f0: 0000 0000 210a 8236 242a 9536 0000 0000
00000100: 7259 f635 6087 5233 0000 0000 0f85 0835
00000110: 0000 0000 0000 0000 0000 0000 db0e 3434
00000120: 0174 7a35 e6c8 6535 e3b5 6735 0000 0000
00000130: 8dd6 a534 cca8 bd33 99e8 2434 0000 0000
00000140: ed4d 9733 0000 0000 0000 0000 0e7a 9234
00000150: 9c3d 6535 e63a 1235 0000 0000 0000 0000
00000160: 0382 f234 0000 0000 c810 0734 18bd 7634
00000170: 0000 0000 0000 0000 16f3 1435 2cdc 8534
00000180: 2f9c 6834 9dce 0c34 869d ec34 034e f132
00000190: 7e5f f134 cf6b 9233 0000 0000 b3cd f234
000001a0: ed38 f031 906d 9334 7aee 2233 0000 0000
000001b0: 0000 0000 fabf 1935 284c cf32 5434 7c35
000001c0: 1af5 8935 7949 4b35 cd52 3534 525b 4935
000001d0: 0000 0000 d3a5 c034 1817 7734 0000 0000
000001e0: 4204 1a35 18a9 5835 0000 0000 773d 9935
000001f0: 0000 0000 102b 8635 01ff 2235 097c c433
00000200: 836b f837 7104 a435 0000 0000 e6f7 3637
00000210: 0000 0000 0000 0000 0000 0000 d25e 3d35
00000220: cde9 e837 d432 cc37 12d5 9636 0000 0000
00000230: 65cb af35 fd20 3636 0a74 9736 0000 0000
00000240: a93d 1234 0000 0000 0000 0000 1c5f b735
00000250: f0cb bf37 656a c435 0000 0000 0000 0000
00000260: 1dcf 2837 0000 0000 b580 4434 0092 a335
00000270: 0000 0000 0000 0000 eb06 3f37 bf82 1235
00000280: 1922 d835 6a6a 4034 ec47 a035 1a01 0c33
00000290: da41 5f37 cdfc e733 0000 0000 0244 1e36
000002a0: b72f c731 157e 0837 57f8 3a33 0000 0000
000002b0: 0000 0000 4e39 3b37 ce5e d532 07cc 6037
000002c0: 0836 8037 4fc7 b137 210e e934 89ba cb36
000002d0: 0000 0000 419e 3737 37dd 1f36 0000 0000
000002e0: 5402 8937 28cb 7536 0000 0000 dcf7 0d38
000002f0: 0000 0000 9cfd 7437 93b0 5f36 63b7 1f36
00000300: 0000 0000 0000 0000 0000 0000 0000 0000
00000310: 0000 0000 0000 0000 0000 0000 0000 0000
00000320: 0000 0000 0000 0000 0000 0000 0000 0000
00000330: 0000 0000 0000 0000 0000 0000 0000 0000
00000340: 0000 0000 0000 0000 0000 0000 0000 0000
00000350: 0000 0000 0000 0000 0000 0000 0000 0000
00000360: 0000 0000 0000 0000 0000 0000 0000 0000
00000370: 0000 0000 0000 0000 0000 0000 0000 0000
00000380: 0000 0000 0000 0000 0000 0000 0000 0000
00000390: 0000 0000 0000 0000 0000 0000 0000 0000
000003a0: 0000 0000 0000 0000 0000 0000 0000 0000
000003b0: 0000 0000 0000 0000 0000 0000 0000 0000
000003c0: 0000 0000 0000 0000 0000 0000 0000 0000
000003d0: 0000 0000 0000 0000 0000 0000 0000 0000
000003e0: 0000 0000 0000 0000 0000 0000 0000 0000
000003f0: 0000 0000 0000 0000 0000 0000 0000 0000
7.92244e-06 0.0 0.0 1.1190159e-06 0.0 0.0 0.0 1.8356684e-06
0.0 4.383111e-07 5.893256e-06 0.0 2.4198666e-06 0.0 0.0 0.0
6.5542406e-07 0.0 0.0 1.8203175e-06 1.5824459e-06 4.6800187e-06 0.0 0.0
9.2588965e-07 0.0 6.009045e-07 2.0777234e-06 0.0 0.0 1.6314654e-06 2.0711514e-06
1.3311499e-06 7.883456e-07 3.835153e-06 2.564928e-07 0.0 4.989335e-07 0.0 3.3932988e-06
1.0069589e-07 0.0 4.7735665e-07 0.0 0.0 2.3877653e-06 2.0966273e-07 3.9923025e-06
3.9304537e-06 2.2584052e-07 1.1712365e-06 4.5098436e-06 0.0 0.0 1.0999887e-06 0.0
0.0 6.8312283e-06 0.0 0.0 0.0 3.875481e-06 4.445452e-06 0.0
1.835446e-06 4.9017558e-08 0.0 5.0857574e-07 0.0 0.0 0.0 1.6769211e-07
9.3301065e-07 8.5601494e-07 8.6318886e-07 0.0 3.088975e-07 8.831702e-08 1.5358309e-07 0.0
7.04566e-08 0.0 0.0 2.7283426e-07 8.53988e-07 5.4474947e-07 0.0 0.0
4.517061e-07 0.0 1.257896e-07 2.2979327e-07 0.0 0.0 5.5488033e-07 2.4933377e-07
2.1663503e-07 1.3113682e-07 4.407304e-07 2.8091568e-08 4.4959228e-07 6.818265e-08 0.0 4.5225678e-07
6.991391e-09 2.74606e-07 3.7935457e-08 0.0 0.0 5.7276304e-07 2.4132603e-08 9.3953463e-07
1.0278629e-06 7.573031e-07 1.6887061e-07 7.5011224e-07 0.0 3.588344e-07 2.3012069e-07 0.0
5.7375667e-07 8.0712334e-07 0.0 1.1417277e-06 0.0 9.996311e-07 6.072078e-07 9.149523e-08
2.9613968e-05 1.2220245e-06 0.0 1.0905764e-05 0.0 0.0 0.0 7.054597e-07
2.7765427e-05 2.4342364e-05 4.495153e-06 0.0 1.3097712e-06 2.7139315e-06 4.5136594e-06 0.0
1.3619741e-07 0.0 0.0 1.3662243e-06 2.286394e-05 1.4634103e-06 0.0 0.0
1.0061803e-05 0.0 1.8300746e-07 1.2186938e-06 0.0 0.0 1.1386098e-05 5.45795e-07
1.6103178e-06 1.7920107e-07 1.1941861e-06 3.2597292e-08 1.3307168e-05 1.080276e-07 0.0 2.358342e-06
5.797087e-09 8.135587e-06 4.3532363e-08 0.0 0.0 1.1159411e-05 2.4839576e-08 1.3398944e-05
1.528395e-05 2.1192855e-05 4.3409912e-07 6.071587e-06 0.0 1.0944496e-05 2.382161e-06 0.0
1.6332757e-05 3.6626097e-06 0.0 3.3847857e-05 0.0 1.4602581e-05 3.333237e-06 2.3799591e-06
0.0 0.0 0.0 0.0 0.0 0.0 0.0 0.0
0.0 0.0 0.0 0.0 0.0 0.0 0.0 0.0
0.0 0.0 0.0 0.0 0.0 0.0 0.0 0.0
0.0 0.0 0.0 0.0 0.0 0.0 0.0 0.0
0.0 0.0 0.0 0.0 0.0 0.0 0.0 0.0
0.0 0.0 0.0 0.0 0.0 0.0 0.0 0.0
0.0 0.0 0.0 0.0 0.0 0.0 0.0 0.0
0.0 0.0 0.0 0.0 0.0 0.0 0.0 0.0

exp_avg f4 [32]
00000000: 0400 0000 3394 0f39 1adf ceb8 0000 0000
00000010: 59ed 343a 2845 7ab9 68d5 d539 1338 9921
00000020: 02a6 a73a 0400 0000 0000 0000 65e2 6dba
00000030: 4b64 8d39 b460 7e3a 9c75 853a 0400 0000
00000040: 0400 0000 0400 0000 d89a 853a 98df 24ba
00000050: aaf8 ccba 0000 0000 e423 c63a f4b8 31b8
00000060: 16f7 db3a 0400 0000 bc50 0fb8 0400 0000
00000070: 844b af39 7b6f e539 032a 1cba 2923 0abb
6e-45 0.00013692751 -9.864401e-05 0.0 0.00069018226 -0.0002386762 0.00040785526 1.0382526e-18
0.0012790563 6e-45 0.0 -0.0009074568 0.0002696834 0.0009703741 0.0010182145 6e-45
6e-45 6e-45 0.0010193242 -0.00062894216 -0.0015638073 0.0 0.0015116897 -4.237234e-05
0.0016782011 6e-45 -3.4169047e-05 6e-45 0.00033434865 0.00043761343 -0.0005957188 -0.0021078086

exp_avg_sq f4 [32]
00000000: c48f 8c36 489b ad35 a5a0 ff37 0000 0000
00000010: f933 a537 bccf 7b36 d2b9 e937 38b2 8d31
00000020: b139 3b38 1ae2 3336 0000 0000 32df 3b38
00000030: 34a6 b137 87a9 7337 305f 0338 47a5 d534
00000040: 2ffd 6632 92e7 7136 faad 8337 6f49 1a37
00000050: 4d96 3d38 0000 0000 f646 d637 cc6e 3e37
00000060: 631a 3338 827d 1c31 9195 6437 8cae 5336
00000070: ba7e 8337 5586 b436 89a8 1137 5887 8c38
4.1890617e-06 1.2934697e-06 3.0473175e-05 0.0 1.9693734e-05 3.7522832e-06 2.7862294e-05 4.123901e-09
4.4638004e-05 2.6804687e-06 0.0 4.479214e-05 2.1177439e-05 1.45234e-05 3.1321484e-05 3.9794597e-07
1.3445329e-08 3.604659e-06 1.5697431e-05 9.196213e-06 4.520109e-05 0.0 2.5543832e-05 1.1350679e-05
4.27015e-05 2.277233e-09 1.3624683e-05 3.154305e-06 1.5675429e-05 5.3800563e-06 8.681914e-06 6.70093e-05

exp_avg f4 [4, 32]
00000000: 0400 0000 032f 7e3b 58fe 4fb9 0000 0000
00000010: 0721 bd3b 858f 4d3b 32fb ef37 da5f 131f
00000020: 6f11 a73b 0400 0000 0000 0000 e6f9 b53b
00000030: 18f1 10b9 4d35 143b 7382 013b 0400 0080
00000040: 0400 0080 0400 0080 3b4c 373b da81 3b3b
00000050: 66db 1f3b 0000 0000 f589 c039 d041 d73b
00000060: 2341 693b 0400 0000 2758 cf36 0400 0080
00000070: 03eb 22b9 9a44 e43a 90b6 b63b ca1a ea3a
00000080: 0400 0000 f911 aab7 1858 acb8 0000 0000
00000090: 559d c8b8 e422 cc36 2a4f c2b8 8bcd c89d
000000a0: a80e 90b8 0400 0080 0000 0000 b77d a8b6
000000b0: 4c2f 50b8 b89b 7bb8 5621 e9b7 0400 0000
000000c0: 0400 0080 0400 0000 6920 85b8 7b97 5636
000000d0: e622 ff34 0000 0000 e4a5 b536 bd0a 1a37
000000e0: 22a2 d7b8 0400 0000 a948 9db5 0400 0000
000000f0: f778 16b8 4747 13b8 f5d6 4137 1306 8136
00000100: 0400 0000 38e3 0a39 a51a f539 0000 0000
00000110: fde6 133a 473a ac36 9bef fc39 267c c39e
00000120: c8cf e039 0400 0080 0000 0000 bdb4 d338
00000130: ee0f 9e39 747c cd39 625d 3939 0400 0000
00000140: 0400 0000 0400 0080 9bfe d439 29fa 2135
00000150: 2b26 6bb6 0000 0000 a4c1 1037 2845 3f37
00000160: d9ab 193a 0400 0080 3dce 68b6 0400 0080
00000170: b30f 8539 fee9 8139 cdff 2e37 9bb1 8736
00000180: 0400 0080 8ac4 82bb df0a 44b9 0000 0000
00000190: 747b ccbb b74b 4ebb 855b dbb9 1341 c49d
000001a0: 31de b2bb 0400 0080 0000 0000 9b1e b9bb
000001b0: e345 eeb8 6bf6 29bb 0546 0bbb 0400 0000
000001c0: 0400 0000 0400 0000 0cc3 4dbb a2c1 3bbb
000001d0: 98a8 1fbb 0000 0000 9be6 c7b9 79ee d7bb
000001e0: 8377 84bb 0400 0080 847b ceb5 0400 0000
000001f0: 4d2c 83b8 7012 00bb fc6e b7bb 7f23 ebba
6e-45 0.0038785345 -0.00019835809 0.0 0.0057717594 0.0031366062 2.8607992e-05 3.1207747e-20
0.005098514 6e-45 0.0 0.005553472 -0.00013822725 0.0022614778 0.0019761592 -6e-45
-6e-45 -6e-45 0.002796902 0.0028611333 0.0024392246 0.0 0.0003672388 0.0065691248
0.0035591803 6e-45 6.179343e-06 -6e-45 -0.00015537073 0.0017415464 0.0055759624 0.0017860767
6e-45 -2.0273948e-05 -8.218008e-05 0.0 -9.5660485e-05 6.0837356e-06 -9.265386e-05 -5.3152086e-21
-6.869185e-05 -6e-45 0.0 -5.0214253e-06 -4.9635113e-05 -5.9988088e-05 -2.7791288e-05 6e-45
-6e-45 6e-45 -6.347971e-05 3.1976658e-06 4.7522843e-07 0.0 5.4135326e-06 9.1816155e-06
-0.000102821985 6e-45 -1.1718558e-06 6e-45 -3.5875444e-05 -3.5113913e-05 1.1553745e-05 3.8452067e-06
6e-45 0.00013245351 0.00046749893 0.0 0.0005642025 5.132784e-06 0.00048243706 -2.0697775e-20
0.00042879418 -6e-45 0.0 0.00010094929 0.00030147977 0.00039193372 0.00017677763 6e-45
6e-45 -6e-45 0.00040625487 6.0341205e-07 -3.5039945e-06 0.0 8.628154e-06 1.1400589e-05
0.0005862094 -6e-45 -3.469074e-06 -6e-45 0.00025379434 0.00024779135 1.0430766e-05 4.0439895e-06
-6e-45 -0.0039907144 -0.00018696066 0.0 -0.0062403027 -0.0031478235 -0.00041839122 -5.1948053e-21
-0.005458616 -6e-45 0.0 -0.0056494004 -0.00011361742 -0.002593423 -0.0021251452 6e-45
6e-45 6e-45 -0.0031396775 -0.002864935 -0.0024361964 0.0 -0.00038128052 -0.0065897075
-0.004042567 -6e-45 -1.5384144e-06 6e-45 -6.2548184e-05 -0.001954224 -0.005597947 -0.0017939656

exp_avg_sq f4 [4, 32]
00000000: 2086 b935 1561 0839 21b2 ab38 0000 0000
00000010: fbf3 e839 478f 7d39 61e4 ca38 b9fb 672c
00000020: 567d b439 b77f 0f37 0000 0000 d383 363a
00000030: 994f 4938 ca23 9b38 cb28 a338 1b90 e232
00000040: 807c 2130 566a 0137 89d1 2a39 4ee7 0839
00000050: beb3 d338 0000 0000 6278 9d38 30e2 433a
00000060: 018c 9b39 9ef6 082d 888a 4137 011e d134
00000070: 1ffd 8e37 e315 6138 e8bd 183a 66ad 2538
00000080: 45bc 0d2f eaae c836 5def a837 0000 0000
00000090: 6239 8738 576d da37 2761 bf37 5707 472d
000000a0: 05a9 e737 d363 c636 0000 0000 10e6 9137
000000b0: 9800 f537 89e1 e036 647b 8136 dde1 0e32
000000c0: 23a5 9e31 f959 1337 1f17 7337 387b 1b36
000000d0: 5f35 fb37 0000 0000 b95c 3237 a2fa 8937
000000e0: c676 cd38 1d9d ac2e c181 6037 e5aa 2135
000000f0: 047d e436 7164 8436 526b 1c38 79dc 9335
00000100: 63b1 5d2f ec38 4b36 dd7a eb37 0000 0000
00000110: 6774 5b38 b0eb 0237 33a6 0238 06ca 2c2b
00000120: 058e c137 9f40 7c36 0000 0000 9a1c 0137
00000130: bfec b537 b607 5637 e01e 3a36 0f3f 8232
00000140: 3fb7 fe30 d2a2 4336 9f90 a637 4a7a a035
00000150: 6728 2f37 0000 0000 df44 c736 8389 0037
00000160: 058e 8c38 72b3 c22e 306b 9736 d9c2 9f34
00000170: aa49 3237 1ca4 e436 b28e 7837 543c ee34
00000180: 59af ba35 ddd5 0839 63e1 8438 0000 0000
00000190: 538e dc39 471b 7739 0ca8 a938 ff34 6f2c
000001a0: b9d0 ad39 d7fb e336 0000 0000 9409 323a
000001b0: 90a4 1d38 e8e3 8c38 bd9c 9f38 6b4d 4f31
000001c0: 33f2 eb2f 4d4c 1037 793d 1b39 4e62 0639
000001d0: fc54 d638 0000 0000 1583 8b38 2ab6 3f3a
000001e0: 16d2 9139 a782 e22b 3d2f 4a37 4952 0c35
000001f0: efeb 2537 7b63 4f38 623d 153a c346 2238
1.382261e-06 0.00013006137 8.1870945e-05 0.0 0.00044432268 0.00024181335 9.6746495e-05 3.2966809e-12
0.00034425658 8.5532e-06 0.0 0.00069623924 4.7996265e-05 7.397642e-05 7.780044e-05 2.6375394e-08
5.8748384e-10 7.713757e-06 0.00016290521 0.00013056138 0.000100947436 0.0 7.5087664e-05 0.0007472364
0.00029668215 7.785465e-12 1.1535951e-05 3.8951114e-07 1.7045588e-05 5.3664564e-05 0.0005826638 3.9500555e-05
1.2890762e-10 5.980827e-06 2.0138623e-05 0.0 6.44799e-05 2.603854e-05 2.2814214e-05 1.131347e-11
2.7616052e-05 5.912481e-06 0.0 1.7392478e-05 2.9206552e-05 6.701976e-06 3.858864e-06 8.316843e-09
4.617179e-09 8.782831e-06 1.4489312e-05 2.3168523e-06 2.9946385e-05 0.0 1.0631215e-05 1.6448383e-05
9.797285e-05 7.8495634e-11 1.3381651e-05 6.022586e-07 6.8094832e-06 3.9455995e-06 3.7293248e-05 1.101652e-06
2.0162853e-10 3.028249e-06 2.8071396e-05 0.0 5.2322077e-05 7.803479e-06 3.11492e-05 6.138704e-13
2.3073526e-05 3.758854e-06 0.0 7.6956585e-06 2.1687125e-05 1.2757189e-05 2.7734131e-06 1.5162668e-08
1.8533014e-09 2.9152038e-06 1.9856087e-05 1.195652e-06 1.044022e-05 0.0 5.93868e-06 7.6614115e-06
6.7021734e-05 8.8539745e-11 4.512629e-06 2.9757828e-07 1.0626778e-05 6.8140344e-06 1.4815176e-05 4.437485e-07
1.3909113e-06 0.00013049641 6.336232e-05 0.0 0.0004206771 0.00023565917 8.089849e-05 3.3993362e-12
0.00033152642 6.794445e-06 0.0 0.00067915884 3.7584978e-05 6.718171e-05 7.6109056e-05 3.0166472e-09
4.2918344e-10 8.600834e-06 0.00014804852 0.00012815857 0.00010220145 0.0 6.6524524e-05 0.00073132163
0.0002781308 1.6094529e-12 1.2051137e-05 5.2273805e-07 9.889699e-06 4.9445294e-05 0.00056930457 3.868971e-05

exp_avg f4 [4]
00000000: df58 483b 65e4 79b8 e648 073a 8943 66bb
0.003057055 -5.9578935e-05 0.0005160704 -0.003513547

exp_avg_sq f4 [4]
00000000: 2df6 5e39 a598 8338 bc30 0f38 4669 6439
0.00021263277 6.274999e-05 3.4139244e-05 0.00021782992
